<?xml version="1.0" ?>
<net name="road-segmentation-adas-0001" version="10">
	<layers>
		<layer id="0" name="data" type="Parameter" version="opset1">
			<data element_type="f32" shape="1,3,512,896"/>
			<output>
				<port id="0" precision="FP32">
					<dim>1</dim>
					<dim>3</dim>
					<dim>512</dim>
					<dim>896</dim>
				</port>
			</output>
		</layer>
		<layer id="1" name="32113215_const" type="Const" version="opset1">
			<data element_type="f32" offset="0" shape="" size="4"/>
			<output>
				<port id="1" precision="FP32"/>
			</output>
		</layer>
		<layer id="2" name="32123216_const" type="Const" version="opset1">
			<data element_type="f32" offset="4" shape="" size="4"/>
			<output>
				<port id="1" precision="FP32"/>
			</output>
		</layer>
		<layer id="3" name="32133217_const" type="Const" version="opset1">
			<data element_type="f32" offset="0" shape="" size="4"/>
			<output>
				<port id="1" precision="FP32"/>
			</output>
		</layer>
		<layer id="4" name="32143218_const" type="Const" version="opset1">
			<data element_type="f32" offset="4" shape="" size="4"/>
			<output>
				<port id="1" precision="FP32"/>
			</output>
		</layer>
		<layer id="5" name="L0000_Conv2d_BN/WithoutBiases/fq_input_0" type="FakeQuantize" version="opset1">
			<data levels="256"/>
			<input>
				<port id="0">
					<dim>1</dim>
					<dim>3</dim>
					<dim>512</dim>
					<dim>896</dim>
				</port>
				<port id="1"/>
				<port id="2"/>
				<port id="3"/>
				<port id="4"/>
			</input>
			<output>
				<port id="5" precision="FP32">
					<dim>1</dim>
					<dim>3</dim>
					<dim>512</dim>
					<dim>896</dim>
				</port>
			</output>
		</layer>
		<layer id="6" name="544/Output_0/Data__const818_const" type="Const" version="opset1">
			<data element_type="f32" offset="8" shape="16,3,3,3" size="1728"/>
			<output>
				<port id="1" precision="FP32">
					<dim>16</dim>
					<dim>3</dim>
					<dim>3</dim>
					<dim>3</dim>
				</port>
			</output>
		</layer>
		<layer id="7" name="32213225_const" type="Const" version="opset1">
			<data element_type="f32" offset="1736" shape="16,1,1,1" size="64"/>
			<output>
				<port id="1" precision="FP32">
					<dim>16</dim>
					<dim>1</dim>
					<dim>1</dim>
					<dim>1</dim>
				</port>
			</output>
		</layer>
		<layer id="8" name="32223226_const" type="Const" version="opset1">
			<data element_type="f32" offset="1800" shape="16,1,1,1" size="64"/>
			<output>
				<port id="1" precision="FP32">
					<dim>16</dim>
					<dim>1</dim>
					<dim>1</dim>
					<dim>1</dim>
				</port>
			</output>
		</layer>
		<layer id="9" name="32233227_const" type="Const" version="opset1">
			<data element_type="f32" offset="1864" shape="16,1,1,1" size="64"/>
			<output>
				<port id="1" precision="FP32">
					<dim>16</dim>
					<dim>1</dim>
					<dim>1</dim>
					<dim>1</dim>
				</port>
			</output>
		</layer>
		<layer id="10" name="32243228_const" type="Const" version="opset1">
			<data element_type="f32" offset="1928" shape="16,1,1,1" size="64"/>
			<output>
				<port id="1" precision="FP32">
					<dim>16</dim>
					<dim>1</dim>
					<dim>1</dim>
					<dim>1</dim>
				</port>
			</output>
		</layer>
		<layer id="11" name="L0000_Conv2d_BN/WithoutBiases/fq_weights_1" type="FakeQuantize" version="opset1">
			<data levels="255"/>
			<input>
				<port id="0">
					<dim>16</dim>
					<dim>3</dim>
					<dim>3</dim>
					<dim>3</dim>
				</port>
				<port id="1">
					<dim>16</dim>
					<dim>1</dim>
					<dim>1</dim>
					<dim>1</dim>
				</port>
				<port id="2">
					<dim>16</dim>
					<dim>1</dim>
					<dim>1</dim>
					<dim>1</dim>
				</port>
				<port id="3">
					<dim>16</dim>
					<dim>1</dim>
					<dim>1</dim>
					<dim>1</dim>
				</port>
				<port id="4">
					<dim>16</dim>
					<dim>1</dim>
					<dim>1</dim>
					<dim>1</dim>
				</port>
			</input>
			<output>
				<port id="5" precision="FP32">
					<dim>16</dim>
					<dim>3</dim>
					<dim>3</dim>
					<dim>3</dim>
				</port>
			</output>
		</layer>
		<layer id="12" name="L0000_Conv2d_BN/WithoutBiases" type="Convolution" version="opset1">
			<data dilations="1,1" output_padding="0,0" pads_begin="1,1" pads_end="1,1" strides="2,2"/>
			<input>
				<port id="0">
					<dim>1</dim>
					<dim>3</dim>
					<dim>512</dim>
					<dim>896</dim>
				</port>
				<port id="1">
					<dim>16</dim>
					<dim>3</dim>
					<dim>3</dim>
					<dim>3</dim>
				</port>
			</input>
			<output>
				<port id="2" precision="FP32">
					<dim>1</dim>
					<dim>16</dim>
					<dim>256</dim>
					<dim>448</dim>
				</port>
			</output>
		</layer>
		<layer id="13" name="L0000_Conv2d_BN/Dims6284/copy_const820_const" type="Const" version="opset1">
			<data element_type="f32" offset="1992" shape="1,16,1,1" size="64"/>
			<output>
				<port id="1" precision="FP32">
					<dim>1</dim>
					<dim>16</dim>
					<dim>1</dim>
					<dim>1</dim>
				</port>
			</output>
		</layer>
		<layer id="14" name="L0000_Conv2d_BN" type="Add" version="opset1">
			<input>
				<port id="0">
					<dim>1</dim>
					<dim>16</dim>
					<dim>256</dim>
					<dim>448</dim>
				</port>
				<port id="1">
					<dim>1</dim>
					<dim>16</dim>
					<dim>1</dim>
					<dim>1</dim>
				</port>
			</input>
			<output>
				<port id="2" precision="FP32">
					<dim>1</dim>
					<dim>16</dim>
					<dim>256</dim>
					<dim>448</dim>
				</port>
			</output>
		</layer>
		<layer id="15" name="L0001_ReLU" type="ReLU" version="opset1">
			<input>
				<port id="0">
					<dim>1</dim>
					<dim>16</dim>
					<dim>256</dim>
					<dim>448</dim>
				</port>
			</input>
			<output>
				<port id="1" precision="FP32">
					<dim>1</dim>
					<dim>16</dim>
					<dim>256</dim>
					<dim>448</dim>
				</port>
			</output>
		</layer>
		<layer id="16" name="43514355_const" type="Const" version="opset1">
			<data element_type="f32" offset="0" shape="" size="4"/>
			<output>
				<port id="1" precision="FP32"/>
			</output>
		</layer>
		<layer id="17" name="43524356_const" type="Const" version="opset1">
			<data element_type="f32" offset="2056" shape="" size="4"/>
			<output>
				<port id="1" precision="FP32"/>
			</output>
		</layer>
		<layer id="18" name="43534357_const" type="Const" version="opset1">
			<data element_type="f32" offset="0" shape="" size="4"/>
			<output>
				<port id="1" precision="FP32"/>
			</output>
		</layer>
		<layer id="19" name="43544358_const" type="Const" version="opset1">
			<data element_type="f32" offset="2056" shape="" size="4"/>
			<output>
				<port id="1" precision="FP32"/>
			</output>
		</layer>
		<layer id="20" name="L0002_Conv2d_BN/WithoutBiases/fq_input_0" type="FakeQuantize" version="opset1">
			<data levels="256"/>
			<input>
				<port id="0">
					<dim>1</dim>
					<dim>16</dim>
					<dim>256</dim>
					<dim>448</dim>
				</port>
				<port id="1"/>
				<port id="2"/>
				<port id="3"/>
				<port id="4"/>
			</input>
			<output>
				<port id="5" precision="FP32">
					<dim>1</dim>
					<dim>16</dim>
					<dim>256</dim>
					<dim>448</dim>
				</port>
			</output>
		</layer>
		<layer id="21" name="470/Output_0/Data__const823_const" type="Const" version="opset1">
			<data element_type="f32" offset="2060" shape="8,16,1,1" size="512"/>
			<output>
				<port id="1" precision="FP32">
					<dim>8</dim>
					<dim>16</dim>
					<dim>1</dim>
					<dim>1</dim>
				</port>
			</output>
		</layer>
		<layer id="22" name="43614365_const" type="Const" version="opset1">
			<data element_type="f32" offset="2572" shape="8,1,1,1" size="32"/>
			<output>
				<port id="1" precision="FP32">
					<dim>8</dim>
					<dim>1</dim>
					<dim>1</dim>
					<dim>1</dim>
				</port>
			</output>
		</layer>
		<layer id="23" name="43624366_const" type="Const" version="opset1">
			<data element_type="f32" offset="2604" shape="8,1,1,1" size="32"/>
			<output>
				<port id="1" precision="FP32">
					<dim>8</dim>
					<dim>1</dim>
					<dim>1</dim>
					<dim>1</dim>
				</port>
			</output>
		</layer>
		<layer id="24" name="43634367_const" type="Const" version="opset1">
			<data element_type="f32" offset="2572" shape="8,1,1,1" size="32"/>
			<output>
				<port id="1" precision="FP32">
					<dim>8</dim>
					<dim>1</dim>
					<dim>1</dim>
					<dim>1</dim>
				</port>
			</output>
		</layer>
		<layer id="25" name="43644368_const" type="Const" version="opset1">
			<data element_type="f32" offset="2604" shape="8,1,1,1" size="32"/>
			<output>
				<port id="1" precision="FP32">
					<dim>8</dim>
					<dim>1</dim>
					<dim>1</dim>
					<dim>1</dim>
				</port>
			</output>
		</layer>
		<layer id="26" name="L0002_Conv2d_BN/WithoutBiases/fq_weights_1" type="FakeQuantize" version="opset1">
			<data levels="255"/>
			<input>
				<port id="0">
					<dim>8</dim>
					<dim>16</dim>
					<dim>1</dim>
					<dim>1</dim>
				</port>
				<port id="1">
					<dim>8</dim>
					<dim>1</dim>
					<dim>1</dim>
					<dim>1</dim>
				</port>
				<port id="2">
					<dim>8</dim>
					<dim>1</dim>
					<dim>1</dim>
					<dim>1</dim>
				</port>
				<port id="3">
					<dim>8</dim>
					<dim>1</dim>
					<dim>1</dim>
					<dim>1</dim>
				</port>
				<port id="4">
					<dim>8</dim>
					<dim>1</dim>
					<dim>1</dim>
					<dim>1</dim>
				</port>
			</input>
			<output>
				<port id="5" precision="FP32">
					<dim>8</dim>
					<dim>16</dim>
					<dim>1</dim>
					<dim>1</dim>
				</port>
			</output>
		</layer>
		<layer id="27" name="L0002_Conv2d_BN/WithoutBiases" type="Convolution" version="opset1">
			<data dilations="1,1" output_padding="0,0" pads_begin="0,0" pads_end="0,0" strides="1,1"/>
			<input>
				<port id="0">
					<dim>1</dim>
					<dim>16</dim>
					<dim>256</dim>
					<dim>448</dim>
				</port>
				<port id="1">
					<dim>8</dim>
					<dim>16</dim>
					<dim>1</dim>
					<dim>1</dim>
				</port>
			</input>
			<output>
				<port id="2" precision="FP32">
					<dim>1</dim>
					<dim>8</dim>
					<dim>256</dim>
					<dim>448</dim>
				</port>
			</output>
		</layer>
		<layer id="28" name="L0002_Conv2d_BN/Dims5780/copy_const825_const" type="Const" version="opset1">
			<data element_type="f32" offset="2636" shape="1,8,1,1" size="32"/>
			<output>
				<port id="1" precision="FP32">
					<dim>1</dim>
					<dim>8</dim>
					<dim>1</dim>
					<dim>1</dim>
				</port>
			</output>
		</layer>
		<layer id="29" name="L0002_Conv2d_BN" type="Add" version="opset1">
			<input>
				<port id="0">
					<dim>1</dim>
					<dim>8</dim>
					<dim>256</dim>
					<dim>448</dim>
				</port>
				<port id="1">
					<dim>1</dim>
					<dim>8</dim>
					<dim>1</dim>
					<dim>1</dim>
				</port>
			</input>
			<output>
				<port id="2" precision="FP32">
					<dim>1</dim>
					<dim>8</dim>
					<dim>256</dim>
					<dim>448</dim>
				</port>
			</output>
		</layer>
		<layer id="30" name="L0003_ReLU" type="ReLU" version="opset1">
			<input>
				<port id="0">
					<dim>1</dim>
					<dim>8</dim>
					<dim>256</dim>
					<dim>448</dim>
				</port>
			</input>
			<output>
				<port id="1" precision="FP32">
					<dim>1</dim>
					<dim>8</dim>
					<dim>256</dim>
					<dim>448</dim>
				</port>
			</output>
		</layer>
		<layer id="31" name="45514555_const" type="Const" version="opset1">
			<data element_type="f32" offset="2668" shape="1,8,1,1" size="32"/>
			<output>
				<port id="1" precision="FP32">
					<dim>1</dim>
					<dim>8</dim>
					<dim>1</dim>
					<dim>1</dim>
				</port>
			</output>
		</layer>
		<layer id="32" name="45524556_const" type="Const" version="opset1">
			<data element_type="f32" offset="2700" shape="1,8,1,1" size="32"/>
			<output>
				<port id="1" precision="FP32">
					<dim>1</dim>
					<dim>8</dim>
					<dim>1</dim>
					<dim>1</dim>
				</port>
			</output>
		</layer>
		<layer id="33" name="45534557_const" type="Const" version="opset1">
			<data element_type="f32" offset="2668" shape="1,8,1,1" size="32"/>
			<output>
				<port id="1" precision="FP32">
					<dim>1</dim>
					<dim>8</dim>
					<dim>1</dim>
					<dim>1</dim>
				</port>
			</output>
		</layer>
		<layer id="34" name="45544558_const" type="Const" version="opset1">
			<data element_type="f32" offset="2700" shape="1,8,1,1" size="32"/>
			<output>
				<port id="1" precision="FP32">
					<dim>1</dim>
					<dim>8</dim>
					<dim>1</dim>
					<dim>1</dim>
				</port>
			</output>
		</layer>
		<layer id="35" name="L0004_Conv2d_BN/WithoutBiases/fq_input_0" type="FakeQuantize" version="opset1">
			<data levels="256"/>
			<input>
				<port id="0">
					<dim>1</dim>
					<dim>8</dim>
					<dim>256</dim>
					<dim>448</dim>
				</port>
				<port id="1">
					<dim>1</dim>
					<dim>8</dim>
					<dim>1</dim>
					<dim>1</dim>
				</port>
				<port id="2">
					<dim>1</dim>
					<dim>8</dim>
					<dim>1</dim>
					<dim>1</dim>
				</port>
				<port id="3">
					<dim>1</dim>
					<dim>8</dim>
					<dim>1</dim>
					<dim>1</dim>
				</port>
				<port id="4">
					<dim>1</dim>
					<dim>8</dim>
					<dim>1</dim>
					<dim>1</dim>
				</port>
			</input>
			<output>
				<port id="5" precision="FP32">
					<dim>1</dim>
					<dim>8</dim>
					<dim>256</dim>
					<dim>448</dim>
				</port>
			</output>
		</layer>
		<layer id="36" name="17511552_const" type="Const" version="opset1">
			<data element_type="f32" offset="2732" shape="8,1,3,3" size="288"/>
			<output>
				<port id="1" precision="FP32">
					<dim>8</dim>
					<dim>1</dim>
					<dim>3</dim>
					<dim>3</dim>
				</port>
			</output>
		</layer>
		<layer id="37" name="45614565_const" type="Const" version="opset1">
			<data element_type="f32" offset="3020" shape="8,1,1,1" size="32"/>
			<output>
				<port id="1" precision="FP32">
					<dim>8</dim>
					<dim>1</dim>
					<dim>1</dim>
					<dim>1</dim>
				</port>
			</output>
		</layer>
		<layer id="38" name="45624566_const" type="Const" version="opset1">
			<data element_type="f32" offset="3052" shape="8,1,1,1" size="32"/>
			<output>
				<port id="1" precision="FP32">
					<dim>8</dim>
					<dim>1</dim>
					<dim>1</dim>
					<dim>1</dim>
				</port>
			</output>
		</layer>
		<layer id="39" name="45634567_const" type="Const" version="opset1">
			<data element_type="f32" offset="3020" shape="8,1,1,1" size="32"/>
			<output>
				<port id="1" precision="FP32">
					<dim>8</dim>
					<dim>1</dim>
					<dim>1</dim>
					<dim>1</dim>
				</port>
			</output>
		</layer>
		<layer id="40" name="45644568_const" type="Const" version="opset1">
			<data element_type="f32" offset="3052" shape="8,1,1,1" size="32"/>
			<output>
				<port id="1" precision="FP32">
					<dim>8</dim>
					<dim>1</dim>
					<dim>1</dim>
					<dim>1</dim>
				</port>
			</output>
		</layer>
		<layer id="41" name="L0004_Conv2d_BN/WithoutBiases/fq_weights_1" type="FakeQuantize" version="opset1">
			<data levels="255"/>
			<input>
				<port id="0">
					<dim>8</dim>
					<dim>1</dim>
					<dim>3</dim>
					<dim>3</dim>
				</port>
				<port id="1">
					<dim>8</dim>
					<dim>1</dim>
					<dim>1</dim>
					<dim>1</dim>
				</port>
				<port id="2">
					<dim>8</dim>
					<dim>1</dim>
					<dim>1</dim>
					<dim>1</dim>
				</port>
				<port id="3">
					<dim>8</dim>
					<dim>1</dim>
					<dim>1</dim>
					<dim>1</dim>
				</port>
				<port id="4">
					<dim>8</dim>
					<dim>1</dim>
					<dim>1</dim>
					<dim>1</dim>
				</port>
			</input>
			<output>
				<port id="5" precision="FP32">
					<dim>8</dim>
					<dim>1</dim>
					<dim>3</dim>
					<dim>3</dim>
				</port>
			</output>
		</layer>
		<layer id="42" name="11041/value11043_const" type="Const" version="opset1">
			<data element_type="i64" offset="3084" shape="5" size="40"/>
			<output>
				<port id="1" precision="I64">
					<dim>5</dim>
				</port>
			</output>
		</layer>
		<layer id="43" name="11041" type="Reshape" version="opset1">
			<data special_zero="True"/>
			<input>
				<port id="0">
					<dim>8</dim>
					<dim>1</dim>
					<dim>3</dim>
					<dim>3</dim>
				</port>
				<port id="1">
					<dim>5</dim>
				</port>
			</input>
			<output>
				<port id="2" precision="FP32">
					<dim>8</dim>
					<dim>1</dim>
					<dim>1</dim>
					<dim>3</dim>
					<dim>3</dim>
				</port>
			</output>
		</layer>
		<layer id="44" name="L0004_Conv2d_BN/WithoutBiases" type="GroupConvolution" version="opset1">
			<data dilations="1,1" output_padding="0,0" pads_begin="1,1" pads_end="1,1" strides="1,1"/>
			<input>
				<port id="0">
					<dim>1</dim>
					<dim>8</dim>
					<dim>256</dim>
					<dim>448</dim>
				</port>
				<port id="1">
					<dim>8</dim>
					<dim>1</dim>
					<dim>1</dim>
					<dim>3</dim>
					<dim>3</dim>
				</port>
			</input>
			<output>
				<port id="2" precision="FP32">
					<dim>1</dim>
					<dim>8</dim>
					<dim>256</dim>
					<dim>448</dim>
				</port>
			</output>
		</layer>
		<layer id="45" name="L0004_Conv2d_BN/Dims5906/copy_const830_const" type="Const" version="opset1">
			<data element_type="f32" offset="3124" shape="1,8,1,1" size="32"/>
			<output>
				<port id="1" precision="FP32">
					<dim>1</dim>
					<dim>8</dim>
					<dim>1</dim>
					<dim>1</dim>
				</port>
			</output>
		</layer>
		<layer id="46" name="L0004_Conv2d_BN" type="Add" version="opset1">
			<input>
				<port id="0">
					<dim>1</dim>
					<dim>8</dim>
					<dim>256</dim>
					<dim>448</dim>
				</port>
				<port id="1">
					<dim>1</dim>
					<dim>8</dim>
					<dim>1</dim>
					<dim>1</dim>
				</port>
			</input>
			<output>
				<port id="2" precision="FP32">
					<dim>1</dim>
					<dim>8</dim>
					<dim>256</dim>
					<dim>448</dim>
				</port>
			</output>
		</layer>
		<layer id="47" name="L0005_ReLU" type="ReLU" version="opset1">
			<input>
				<port id="0">
					<dim>1</dim>
					<dim>8</dim>
					<dim>256</dim>
					<dim>448</dim>
				</port>
			</input>
			<output>
				<port id="1" precision="FP32">
					<dim>1</dim>
					<dim>8</dim>
					<dim>256</dim>
					<dim>448</dim>
				</port>
			</output>
		</layer>
		<layer id="48" name="26612665_const" type="Const" version="opset1">
			<data element_type="f32" offset="0" shape="" size="4"/>
			<output>
				<port id="1" precision="FP32"/>
			</output>
		</layer>
		<layer id="49" name="26622666_const" type="Const" version="opset1">
			<data element_type="f32" offset="3156" shape="" size="4"/>
			<output>
				<port id="1" precision="FP32"/>
			</output>
		</layer>
		<layer id="50" name="26632667_const" type="Const" version="opset1">
			<data element_type="f32" offset="0" shape="" size="4"/>
			<output>
				<port id="1" precision="FP32"/>
			</output>
		</layer>
		<layer id="51" name="26642668_const" type="Const" version="opset1">
			<data element_type="f32" offset="3156" shape="" size="4"/>
			<output>
				<port id="1" precision="FP32"/>
			</output>
		</layer>
		<layer id="52" name="L0006_Conv2d_BN/WithoutBiases/fq_input_0" type="FakeQuantize" version="opset1">
			<data levels="256"/>
			<input>
				<port id="0">
					<dim>1</dim>
					<dim>8</dim>
					<dim>256</dim>
					<dim>448</dim>
				</port>
				<port id="1"/>
				<port id="2"/>
				<port id="3"/>
				<port id="4"/>
			</input>
			<output>
				<port id="5" precision="FP32">
					<dim>1</dim>
					<dim>8</dim>
					<dim>256</dim>
					<dim>448</dim>
				</port>
			</output>
		</layer>
		<layer id="53" name="348/Output_0/Data__const833_const" type="Const" version="opset1">
			<data element_type="f32" offset="3160" shape="16,8,1,1" size="512"/>
			<output>
				<port id="1" precision="FP32">
					<dim>16</dim>
					<dim>8</dim>
					<dim>1</dim>
					<dim>1</dim>
				</port>
			</output>
		</layer>
		<layer id="54" name="26712675_const" type="Const" version="opset1">
			<data element_type="f32" offset="3672" shape="16,1,1,1" size="64"/>
			<output>
				<port id="1" precision="FP32">
					<dim>16</dim>
					<dim>1</dim>
					<dim>1</dim>
					<dim>1</dim>
				</port>
			</output>
		</layer>
		<layer id="55" name="26722676_const" type="Const" version="opset1">
			<data element_type="f32" offset="3736" shape="16,1,1,1" size="64"/>
			<output>
				<port id="1" precision="FP32">
					<dim>16</dim>
					<dim>1</dim>
					<dim>1</dim>
					<dim>1</dim>
				</port>
			</output>
		</layer>
		<layer id="56" name="26732677_const" type="Const" version="opset1">
			<data element_type="f32" offset="3672" shape="16,1,1,1" size="64"/>
			<output>
				<port id="1" precision="FP32">
					<dim>16</dim>
					<dim>1</dim>
					<dim>1</dim>
					<dim>1</dim>
				</port>
			</output>
		</layer>
		<layer id="57" name="26742678_const" type="Const" version="opset1">
			<data element_type="f32" offset="3736" shape="16,1,1,1" size="64"/>
			<output>
				<port id="1" precision="FP32">
					<dim>16</dim>
					<dim>1</dim>
					<dim>1</dim>
					<dim>1</dim>
				</port>
			</output>
		</layer>
		<layer id="58" name="L0006_Conv2d_BN/WithoutBiases/fq_weights_1" type="FakeQuantize" version="opset1">
			<data levels="255"/>
			<input>
				<port id="0">
					<dim>16</dim>
					<dim>8</dim>
					<dim>1</dim>
					<dim>1</dim>
				</port>
				<port id="1">
					<dim>16</dim>
					<dim>1</dim>
					<dim>1</dim>
					<dim>1</dim>
				</port>
				<port id="2">
					<dim>16</dim>
					<dim>1</dim>
					<dim>1</dim>
					<dim>1</dim>
				</port>
				<port id="3">
					<dim>16</dim>
					<dim>1</dim>
					<dim>1</dim>
					<dim>1</dim>
				</port>
				<port id="4">
					<dim>16</dim>
					<dim>1</dim>
					<dim>1</dim>
					<dim>1</dim>
				</port>
			</input>
			<output>
				<port id="5" precision="FP32">
					<dim>16</dim>
					<dim>8</dim>
					<dim>1</dim>
					<dim>1</dim>
				</port>
			</output>
		</layer>
		<layer id="59" name="L0006_Conv2d_BN/WithoutBiases" type="Convolution" version="opset1">
			<data dilations="1,1" output_padding="0,0" pads_begin="0,0" pads_end="0,0" strides="1,1"/>
			<input>
				<port id="0">
					<dim>1</dim>
					<dim>8</dim>
					<dim>256</dim>
					<dim>448</dim>
				</port>
				<port id="1">
					<dim>16</dim>
					<dim>8</dim>
					<dim>1</dim>
					<dim>1</dim>
				</port>
			</input>
			<output>
				<port id="2" precision="FP32">
					<dim>1</dim>
					<dim>16</dim>
					<dim>256</dim>
					<dim>448</dim>
				</port>
			</output>
		</layer>
		<layer id="60" name="L0006_Conv2d_BN/Dims5702/copy_const835_const" type="Const" version="opset1">
			<data element_type="f32" offset="3800" shape="1,16,1,1" size="64"/>
			<output>
				<port id="1" precision="FP32">
					<dim>1</dim>
					<dim>16</dim>
					<dim>1</dim>
					<dim>1</dim>
				</port>
			</output>
		</layer>
		<layer id="61" name="L0006_Conv2d_BN" type="Add" version="opset1">
			<input>
				<port id="0">
					<dim>1</dim>
					<dim>16</dim>
					<dim>256</dim>
					<dim>448</dim>
				</port>
				<port id="1">
					<dim>1</dim>
					<dim>16</dim>
					<dim>1</dim>
					<dim>1</dim>
				</port>
			</input>
			<output>
				<port id="2" precision="FP32">
					<dim>1</dim>
					<dim>16</dim>
					<dim>256</dim>
					<dim>448</dim>
				</port>
			</output>
		</layer>
		<layer id="62" name="29712975_const" type="Const" version="opset1">
			<data element_type="f32" offset="3864" shape="" size="4"/>
			<output>
				<port id="1" precision="FP32"/>
			</output>
		</layer>
		<layer id="63" name="29722976_const" type="Const" version="opset1">
			<data element_type="f32" offset="3868" shape="" size="4"/>
			<output>
				<port id="1" precision="FP32"/>
			</output>
		</layer>
		<layer id="64" name="29732977_const" type="Const" version="opset1">
			<data element_type="f32" offset="3864" shape="" size="4"/>
			<output>
				<port id="1" precision="FP32"/>
			</output>
		</layer>
		<layer id="65" name="29742978_const" type="Const" version="opset1">
			<data element_type="f32" offset="3868" shape="" size="4"/>
			<output>
				<port id="1" precision="FP32"/>
			</output>
		</layer>
		<layer id="66" name="L0007_AddBackward1/fq_input_0" type="FakeQuantize" version="opset1">
			<data levels="256"/>
			<input>
				<port id="0">
					<dim>1</dim>
					<dim>16</dim>
					<dim>256</dim>
					<dim>448</dim>
				</port>
				<port id="1"/>
				<port id="2"/>
				<port id="3"/>
				<port id="4"/>
			</input>
			<output>
				<port id="5" precision="FP32">
					<dim>1</dim>
					<dim>16</dim>
					<dim>256</dim>
					<dim>448</dim>
				</port>
			</output>
		</layer>
		<layer id="67" name="L0007_AddBackward1" type="Add" version="opset1">
			<input>
				<port id="0">
					<dim>1</dim>
					<dim>16</dim>
					<dim>256</dim>
					<dim>448</dim>
				</port>
				<port id="1">
					<dim>1</dim>
					<dim>16</dim>
					<dim>256</dim>
					<dim>448</dim>
				</port>
			</input>
			<output>
				<port id="2" precision="FP32">
					<dim>1</dim>
					<dim>16</dim>
					<dim>256</dim>
					<dim>448</dim>
				</port>
			</output>
		</layer>
		<layer id="68" name="L0008_ReLU" type="ReLU" version="opset1">
			<input>
				<port id="0">
					<dim>1</dim>
					<dim>16</dim>
					<dim>256</dim>
					<dim>448</dim>
				</port>
			</input>
			<output>
				<port id="1" precision="FP32">
					<dim>1</dim>
					<dim>16</dim>
					<dim>256</dim>
					<dim>448</dim>
				</port>
			</output>
		</layer>
		<layer id="69" name="57815785_const" type="Const" version="opset1">
			<data element_type="f32" offset="0" shape="" size="4"/>
			<output>
				<port id="1" precision="FP32"/>
			</output>
		</layer>
		<layer id="70" name="57825786_const" type="Const" version="opset1">
			<data element_type="f32" offset="3872" shape="" size="4"/>
			<output>
				<port id="1" precision="FP32"/>
			</output>
		</layer>
		<layer id="71" name="57835787_const" type="Const" version="opset1">
			<data element_type="f32" offset="0" shape="" size="4"/>
			<output>
				<port id="1" precision="FP32"/>
			</output>
		</layer>
		<layer id="72" name="57845788_const" type="Const" version="opset1">
			<data element_type="f32" offset="3872" shape="" size="4"/>
			<output>
				<port id="1" precision="FP32"/>
			</output>
		</layer>
		<layer id="73" name="L0009_Conv2d_BN/WithoutBiases/fq_input_0" type="FakeQuantize" version="opset1">
			<data levels="256"/>
			<input>
				<port id="0">
					<dim>1</dim>
					<dim>16</dim>
					<dim>256</dim>
					<dim>448</dim>
				</port>
				<port id="1"/>
				<port id="2"/>
				<port id="3"/>
				<port id="4"/>
			</input>
			<output>
				<port id="5" precision="FP32">
					<dim>1</dim>
					<dim>16</dim>
					<dim>256</dim>
					<dim>448</dim>
				</port>
			</output>
		</layer>
		<layer id="74" name="554/Output_0/Data__const839_const" type="Const" version="opset1">
			<data element_type="f32" offset="3876" shape="8,16,1,1" size="512"/>
			<output>
				<port id="1" precision="FP32">
					<dim>8</dim>
					<dim>16</dim>
					<dim>1</dim>
					<dim>1</dim>
				</port>
			</output>
		</layer>
		<layer id="75" name="57915795_const" type="Const" version="opset1">
			<data element_type="f32" offset="4388" shape="8,1,1,1" size="32"/>
			<output>
				<port id="1" precision="FP32">
					<dim>8</dim>
					<dim>1</dim>
					<dim>1</dim>
					<dim>1</dim>
				</port>
			</output>
		</layer>
		<layer id="76" name="57925796_const" type="Const" version="opset1">
			<data element_type="f32" offset="4420" shape="8,1,1,1" size="32"/>
			<output>
				<port id="1" precision="FP32">
					<dim>8</dim>
					<dim>1</dim>
					<dim>1</dim>
					<dim>1</dim>
				</port>
			</output>
		</layer>
		<layer id="77" name="57935797_const" type="Const" version="opset1">
			<data element_type="f32" offset="4388" shape="8,1,1,1" size="32"/>
			<output>
				<port id="1" precision="FP32">
					<dim>8</dim>
					<dim>1</dim>
					<dim>1</dim>
					<dim>1</dim>
				</port>
			</output>
		</layer>
		<layer id="78" name="57945798_const" type="Const" version="opset1">
			<data element_type="f32" offset="4420" shape="8,1,1,1" size="32"/>
			<output>
				<port id="1" precision="FP32">
					<dim>8</dim>
					<dim>1</dim>
					<dim>1</dim>
					<dim>1</dim>
				</port>
			</output>
		</layer>
		<layer id="79" name="L0009_Conv2d_BN/WithoutBiases/fq_weights_1" type="FakeQuantize" version="opset1">
			<data levels="255"/>
			<input>
				<port id="0">
					<dim>8</dim>
					<dim>16</dim>
					<dim>1</dim>
					<dim>1</dim>
				</port>
				<port id="1">
					<dim>8</dim>
					<dim>1</dim>
					<dim>1</dim>
					<dim>1</dim>
				</port>
				<port id="2">
					<dim>8</dim>
					<dim>1</dim>
					<dim>1</dim>
					<dim>1</dim>
				</port>
				<port id="3">
					<dim>8</dim>
					<dim>1</dim>
					<dim>1</dim>
					<dim>1</dim>
				</port>
				<port id="4">
					<dim>8</dim>
					<dim>1</dim>
					<dim>1</dim>
					<dim>1</dim>
				</port>
			</input>
			<output>
				<port id="5" precision="FP32">
					<dim>8</dim>
					<dim>16</dim>
					<dim>1</dim>
					<dim>1</dim>
				</port>
			</output>
		</layer>
		<layer id="80" name="L0009_Conv2d_BN/WithoutBiases" type="Convolution" version="opset1">
			<data dilations="1,1" output_padding="0,0" pads_begin="0,0" pads_end="0,0" strides="1,1"/>
			<input>
				<port id="0">
					<dim>1</dim>
					<dim>16</dim>
					<dim>256</dim>
					<dim>448</dim>
				</port>
				<port id="1">
					<dim>8</dim>
					<dim>16</dim>
					<dim>1</dim>
					<dim>1</dim>
				</port>
			</input>
			<output>
				<port id="2" precision="FP32">
					<dim>1</dim>
					<dim>8</dim>
					<dim>256</dim>
					<dim>448</dim>
				</port>
			</output>
		</layer>
		<layer id="81" name="L0009_Conv2d_BN/Dims6044/copy_const841_const" type="Const" version="opset1">
			<data element_type="f32" offset="4452" shape="1,8,1,1" size="32"/>
			<output>
				<port id="1" precision="FP32">
					<dim>1</dim>
					<dim>8</dim>
					<dim>1</dim>
					<dim>1</dim>
				</port>
			</output>
		</layer>
		<layer id="82" name="L0009_Conv2d_BN" type="Add" version="opset1">
			<input>
				<port id="0">
					<dim>1</dim>
					<dim>8</dim>
					<dim>256</dim>
					<dim>448</dim>
				</port>
				<port id="1">
					<dim>1</dim>
					<dim>8</dim>
					<dim>1</dim>
					<dim>1</dim>
				</port>
			</input>
			<output>
				<port id="2" precision="FP32">
					<dim>1</dim>
					<dim>8</dim>
					<dim>256</dim>
					<dim>448</dim>
				</port>
			</output>
		</layer>
		<layer id="83" name="L0010_ReLU" type="ReLU" version="opset1">
			<input>
				<port id="0">
					<dim>1</dim>
					<dim>8</dim>
					<dim>256</dim>
					<dim>448</dim>
				</port>
			</input>
			<output>
				<port id="1" precision="FP32">
					<dim>1</dim>
					<dim>8</dim>
					<dim>256</dim>
					<dim>448</dim>
				</port>
			</output>
		</layer>
		<layer id="84" name="48514855_const" type="Const" version="opset1">
			<data element_type="f32" offset="2668" shape="1,8,1,1" size="32"/>
			<output>
				<port id="1" precision="FP32">
					<dim>1</dim>
					<dim>8</dim>
					<dim>1</dim>
					<dim>1</dim>
				</port>
			</output>
		</layer>
		<layer id="85" name="48524856_const" type="Const" version="opset1">
			<data element_type="f32" offset="4484" shape="1,8,1,1" size="32"/>
			<output>
				<port id="1" precision="FP32">
					<dim>1</dim>
					<dim>8</dim>
					<dim>1</dim>
					<dim>1</dim>
				</port>
			</output>
		</layer>
		<layer id="86" name="48534857_const" type="Const" version="opset1">
			<data element_type="f32" offset="2668" shape="1,8,1,1" size="32"/>
			<output>
				<port id="1" precision="FP32">
					<dim>1</dim>
					<dim>8</dim>
					<dim>1</dim>
					<dim>1</dim>
				</port>
			</output>
		</layer>
		<layer id="87" name="48544858_const" type="Const" version="opset1">
			<data element_type="f32" offset="4484" shape="1,8,1,1" size="32"/>
			<output>
				<port id="1" precision="FP32">
					<dim>1</dim>
					<dim>8</dim>
					<dim>1</dim>
					<dim>1</dim>
				</port>
			</output>
		</layer>
		<layer id="88" name="L0011_Conv2d_BN/WithoutBiases/fq_input_0" type="FakeQuantize" version="opset1">
			<data levels="256"/>
			<input>
				<port id="0">
					<dim>1</dim>
					<dim>8</dim>
					<dim>256</dim>
					<dim>448</dim>
				</port>
				<port id="1">
					<dim>1</dim>
					<dim>8</dim>
					<dim>1</dim>
					<dim>1</dim>
				</port>
				<port id="2">
					<dim>1</dim>
					<dim>8</dim>
					<dim>1</dim>
					<dim>1</dim>
				</port>
				<port id="3">
					<dim>1</dim>
					<dim>8</dim>
					<dim>1</dim>
					<dim>1</dim>
				</port>
				<port id="4">
					<dim>1</dim>
					<dim>8</dim>
					<dim>1</dim>
					<dim>1</dim>
				</port>
			</input>
			<output>
				<port id="5" precision="FP32">
					<dim>1</dim>
					<dim>8</dim>
					<dim>256</dim>
					<dim>448</dim>
				</port>
			</output>
		</layer>
		<layer id="89" name="17551554_const" type="Const" version="opset1">
			<data element_type="f32" offset="4516" shape="8,1,3,3" size="288"/>
			<output>
				<port id="1" precision="FP32">
					<dim>8</dim>
					<dim>1</dim>
					<dim>3</dim>
					<dim>3</dim>
				</port>
			</output>
		</layer>
		<layer id="90" name="48614865_const" type="Const" version="opset1">
			<data element_type="f32" offset="4804" shape="8,1,1,1" size="32"/>
			<output>
				<port id="1" precision="FP32">
					<dim>8</dim>
					<dim>1</dim>
					<dim>1</dim>
					<dim>1</dim>
				</port>
			</output>
		</layer>
		<layer id="91" name="48624866_const" type="Const" version="opset1">
			<data element_type="f32" offset="4836" shape="8,1,1,1" size="32"/>
			<output>
				<port id="1" precision="FP32">
					<dim>8</dim>
					<dim>1</dim>
					<dim>1</dim>
					<dim>1</dim>
				</port>
			</output>
		</layer>
		<layer id="92" name="48634867_const" type="Const" version="opset1">
			<data element_type="f32" offset="4804" shape="8,1,1,1" size="32"/>
			<output>
				<port id="1" precision="FP32">
					<dim>8</dim>
					<dim>1</dim>
					<dim>1</dim>
					<dim>1</dim>
				</port>
			</output>
		</layer>
		<layer id="93" name="48644868_const" type="Const" version="opset1">
			<data element_type="f32" offset="4836" shape="8,1,1,1" size="32"/>
			<output>
				<port id="1" precision="FP32">
					<dim>8</dim>
					<dim>1</dim>
					<dim>1</dim>
					<dim>1</dim>
				</port>
			</output>
		</layer>
		<layer id="94" name="L0011_Conv2d_BN/WithoutBiases/fq_weights_1" type="FakeQuantize" version="opset1">
			<data levels="255"/>
			<input>
				<port id="0">
					<dim>8</dim>
					<dim>1</dim>
					<dim>3</dim>
					<dim>3</dim>
				</port>
				<port id="1">
					<dim>8</dim>
					<dim>1</dim>
					<dim>1</dim>
					<dim>1</dim>
				</port>
				<port id="2">
					<dim>8</dim>
					<dim>1</dim>
					<dim>1</dim>
					<dim>1</dim>
				</port>
				<port id="3">
					<dim>8</dim>
					<dim>1</dim>
					<dim>1</dim>
					<dim>1</dim>
				</port>
				<port id="4">
					<dim>8</dim>
					<dim>1</dim>
					<dim>1</dim>
					<dim>1</dim>
				</port>
			</input>
			<output>
				<port id="5" precision="FP32">
					<dim>8</dim>
					<dim>1</dim>
					<dim>3</dim>
					<dim>3</dim>
				</port>
			</output>
		</layer>
		<layer id="95" name="11053/value11055_const" type="Const" version="opset1">
			<data element_type="i64" offset="3084" shape="5" size="40"/>
			<output>
				<port id="1" precision="I64">
					<dim>5</dim>
				</port>
			</output>
		</layer>
		<layer id="96" name="11053" type="Reshape" version="opset1">
			<data special_zero="True"/>
			<input>
				<port id="0">
					<dim>8</dim>
					<dim>1</dim>
					<dim>3</dim>
					<dim>3</dim>
				</port>
				<port id="1">
					<dim>5</dim>
				</port>
			</input>
			<output>
				<port id="2" precision="FP32">
					<dim>8</dim>
					<dim>1</dim>
					<dim>1</dim>
					<dim>3</dim>
					<dim>3</dim>
				</port>
			</output>
		</layer>
		<layer id="97" name="L0011_Conv2d_BN/WithoutBiases" type="GroupConvolution" version="opset1">
			<data dilations="1,1" output_padding="0,0" pads_begin="1,1" pads_end="1,1" strides="1,1"/>
			<input>
				<port id="0">
					<dim>1</dim>
					<dim>8</dim>
					<dim>256</dim>
					<dim>448</dim>
				</port>
				<port id="1">
					<dim>8</dim>
					<dim>1</dim>
					<dim>1</dim>
					<dim>3</dim>
					<dim>3</dim>
				</port>
			</input>
			<output>
				<port id="2" precision="FP32">
					<dim>1</dim>
					<dim>8</dim>
					<dim>256</dim>
					<dim>448</dim>
				</port>
			</output>
		</layer>
		<layer id="98" name="L0011_Conv2d_BN/Dims5708/copy_const846_const" type="Const" version="opset1">
			<data element_type="f32" offset="4868" shape="1,8,1,1" size="32"/>
			<output>
				<port id="1" precision="FP32">
					<dim>1</dim>
					<dim>8</dim>
					<dim>1</dim>
					<dim>1</dim>
				</port>
			</output>
		</layer>
		<layer id="99" name="L0011_Conv2d_BN" type="Add" version="opset1">
			<input>
				<port id="0">
					<dim>1</dim>
					<dim>8</dim>
					<dim>256</dim>
					<dim>448</dim>
				</port>
				<port id="1">
					<dim>1</dim>
					<dim>8</dim>
					<dim>1</dim>
					<dim>1</dim>
				</port>
			</input>
			<output>
				<port id="2" precision="FP32">
					<dim>1</dim>
					<dim>8</dim>
					<dim>256</dim>
					<dim>448</dim>
				</port>
			</output>
		</layer>
		<layer id="100" name="L0012_ReLU" type="ReLU" version="opset1">
			<input>
				<port id="0">
					<dim>1</dim>
					<dim>8</dim>
					<dim>256</dim>
					<dim>448</dim>
				</port>
			</input>
			<output>
				<port id="1" precision="FP32">
					<dim>1</dim>
					<dim>8</dim>
					<dim>256</dim>
					<dim>448</dim>
				</port>
			</output>
		</layer>
		<layer id="101" name="48314835_const" type="Const" version="opset1">
			<data element_type="f32" offset="0" shape="" size="4"/>
			<output>
				<port id="1" precision="FP32"/>
			</output>
		</layer>
		<layer id="102" name="48324836_const" type="Const" version="opset1">
			<data element_type="f32" offset="4900" shape="" size="4"/>
			<output>
				<port id="1" precision="FP32"/>
			</output>
		</layer>
		<layer id="103" name="48334837_const" type="Const" version="opset1">
			<data element_type="f32" offset="0" shape="" size="4"/>
			<output>
				<port id="1" precision="FP32"/>
			</output>
		</layer>
		<layer id="104" name="48344838_const" type="Const" version="opset1">
			<data element_type="f32" offset="4900" shape="" size="4"/>
			<output>
				<port id="1" precision="FP32"/>
			</output>
		</layer>
		<layer id="105" name="L0013_Conv2d_BN/WithoutBiases/fq_input_0" type="FakeQuantize" version="opset1">
			<data levels="256"/>
			<input>
				<port id="0">
					<dim>1</dim>
					<dim>8</dim>
					<dim>256</dim>
					<dim>448</dim>
				</port>
				<port id="1"/>
				<port id="2"/>
				<port id="3"/>
				<port id="4"/>
			</input>
			<output>
				<port id="5" precision="FP32">
					<dim>1</dim>
					<dim>8</dim>
					<dim>256</dim>
					<dim>448</dim>
				</port>
			</output>
		</layer>
		<layer id="106" name="560/Output_0/Data__const849_const" type="Const" version="opset1">
			<data element_type="f32" offset="4904" shape="24,8,1,1" size="768"/>
			<output>
				<port id="1" precision="FP32">
					<dim>24</dim>
					<dim>8</dim>
					<dim>1</dim>
					<dim>1</dim>
				</port>
			</output>
		</layer>
		<layer id="107" name="48414845_const" type="Const" version="opset1">
			<data element_type="f32" offset="5672" shape="24,1,1,1" size="96"/>
			<output>
				<port id="1" precision="FP32">
					<dim>24</dim>
					<dim>1</dim>
					<dim>1</dim>
					<dim>1</dim>
				</port>
			</output>
		</layer>
		<layer id="108" name="48424846_const" type="Const" version="opset1">
			<data element_type="f32" offset="5768" shape="24,1,1,1" size="96"/>
			<output>
				<port id="1" precision="FP32">
					<dim>24</dim>
					<dim>1</dim>
					<dim>1</dim>
					<dim>1</dim>
				</port>
			</output>
		</layer>
		<layer id="109" name="48434847_const" type="Const" version="opset1">
			<data element_type="f32" offset="5672" shape="24,1,1,1" size="96"/>
			<output>
				<port id="1" precision="FP32">
					<dim>24</dim>
					<dim>1</dim>
					<dim>1</dim>
					<dim>1</dim>
				</port>
			</output>
		</layer>
		<layer id="110" name="48444848_const" type="Const" version="opset1">
			<data element_type="f32" offset="5768" shape="24,1,1,1" size="96"/>
			<output>
				<port id="1" precision="FP32">
					<dim>24</dim>
					<dim>1</dim>
					<dim>1</dim>
					<dim>1</dim>
				</port>
			</output>
		</layer>
		<layer id="111" name="L0013_Conv2d_BN/WithoutBiases/fq_weights_1" type="FakeQuantize" version="opset1">
			<data levels="255"/>
			<input>
				<port id="0">
					<dim>24</dim>
					<dim>8</dim>
					<dim>1</dim>
					<dim>1</dim>
				</port>
				<port id="1">
					<dim>24</dim>
					<dim>1</dim>
					<dim>1</dim>
					<dim>1</dim>
				</port>
				<port id="2">
					<dim>24</dim>
					<dim>1</dim>
					<dim>1</dim>
					<dim>1</dim>
				</port>
				<port id="3">
					<dim>24</dim>
					<dim>1</dim>
					<dim>1</dim>
					<dim>1</dim>
				</port>
				<port id="4">
					<dim>24</dim>
					<dim>1</dim>
					<dim>1</dim>
					<dim>1</dim>
				</port>
			</input>
			<output>
				<port id="5" precision="FP32">
					<dim>24</dim>
					<dim>8</dim>
					<dim>1</dim>
					<dim>1</dim>
				</port>
			</output>
		</layer>
		<layer id="112" name="L0013_Conv2d_BN/WithoutBiases" type="Convolution" version="opset1">
			<data dilations="1,1" output_padding="0,0" pads_begin="0,0" pads_end="0,0" strides="1,1"/>
			<input>
				<port id="0">
					<dim>1</dim>
					<dim>8</dim>
					<dim>256</dim>
					<dim>448</dim>
				</port>
				<port id="1">
					<dim>24</dim>
					<dim>8</dim>
					<dim>1</dim>
					<dim>1</dim>
				</port>
			</input>
			<output>
				<port id="2" precision="FP32">
					<dim>1</dim>
					<dim>24</dim>
					<dim>256</dim>
					<dim>448</dim>
				</port>
			</output>
		</layer>
		<layer id="113" name="L0013_Conv2d_BN/Dims5648/copy_const851_const" type="Const" version="opset1">
			<data element_type="f32" offset="5864" shape="1,24,1,1" size="96"/>
			<output>
				<port id="1" precision="FP32">
					<dim>1</dim>
					<dim>24</dim>
					<dim>1</dim>
					<dim>1</dim>
				</port>
			</output>
		</layer>
		<layer id="114" name="L0013_Conv2d_BN" type="Add" version="opset1">
			<input>
				<port id="0">
					<dim>1</dim>
					<dim>24</dim>
					<dim>256</dim>
					<dim>448</dim>
				</port>
				<port id="1">
					<dim>1</dim>
					<dim>24</dim>
					<dim>1</dim>
					<dim>1</dim>
				</port>
			</input>
			<output>
				<port id="2" precision="FP32">
					<dim>1</dim>
					<dim>24</dim>
					<dim>256</dim>
					<dim>448</dim>
				</port>
			</output>
		</layer>
		<layer id="115" name="34613465_const" type="Const" version="opset1">
			<data element_type="f32" offset="5960" shape="" size="4"/>
			<output>
				<port id="1" precision="FP32"/>
			</output>
		</layer>
		<layer id="116" name="34623466_const" type="Const" version="opset1">
			<data element_type="f32" offset="5964" shape="" size="4"/>
			<output>
				<port id="1" precision="FP32"/>
			</output>
		</layer>
		<layer id="117" name="34633467_const" type="Const" version="opset1">
			<data element_type="f32" offset="5960" shape="" size="4"/>
			<output>
				<port id="1" precision="FP32"/>
			</output>
		</layer>
		<layer id="118" name="34643468_const" type="Const" version="opset1">
			<data element_type="f32" offset="5964" shape="" size="4"/>
			<output>
				<port id="1" precision="FP32"/>
			</output>
		</layer>
		<layer id="119" name="L0015_AddBackward1/fq_input_0" type="FakeQuantize" version="opset1">
			<data levels="256"/>
			<input>
				<port id="0">
					<dim>1</dim>
					<dim>24</dim>
					<dim>256</dim>
					<dim>448</dim>
				</port>
				<port id="1"/>
				<port id="2"/>
				<port id="3"/>
				<port id="4"/>
			</input>
			<output>
				<port id="5" precision="FP32">
					<dim>1</dim>
					<dim>24</dim>
					<dim>256</dim>
					<dim>448</dim>
				</port>
			</output>
		</layer>
		<layer id="120" name="548/Output_0/Data__const853_const" type="Const" version="opset1">
			<data element_type="f32" offset="5968" shape="24,16,1,1" size="1536"/>
			<output>
				<port id="1" precision="FP32">
					<dim>24</dim>
					<dim>16</dim>
					<dim>1</dim>
					<dim>1</dim>
				</port>
			</output>
		</layer>
		<layer id="121" name="46614665_const" type="Const" version="opset1">
			<data element_type="f32" offset="7504" shape="24,1,1,1" size="96"/>
			<output>
				<port id="1" precision="FP32">
					<dim>24</dim>
					<dim>1</dim>
					<dim>1</dim>
					<dim>1</dim>
				</port>
			</output>
		</layer>
		<layer id="122" name="46624666_const" type="Const" version="opset1">
			<data element_type="f32" offset="7600" shape="24,1,1,1" size="96"/>
			<output>
				<port id="1" precision="FP32">
					<dim>24</dim>
					<dim>1</dim>
					<dim>1</dim>
					<dim>1</dim>
				</port>
			</output>
		</layer>
		<layer id="123" name="46634667_const" type="Const" version="opset1">
			<data element_type="f32" offset="7504" shape="24,1,1,1" size="96"/>
			<output>
				<port id="1" precision="FP32">
					<dim>24</dim>
					<dim>1</dim>
					<dim>1</dim>
					<dim>1</dim>
				</port>
			</output>
		</layer>
		<layer id="124" name="46644668_const" type="Const" version="opset1">
			<data element_type="f32" offset="7600" shape="24,1,1,1" size="96"/>
			<output>
				<port id="1" precision="FP32">
					<dim>24</dim>
					<dim>1</dim>
					<dim>1</dim>
					<dim>1</dim>
				</port>
			</output>
		</layer>
		<layer id="125" name="L0014_Conv2d_BN/WithoutBiases/fq_weights_1" type="FakeQuantize" version="opset1">
			<data levels="255"/>
			<input>
				<port id="0">
					<dim>24</dim>
					<dim>16</dim>
					<dim>1</dim>
					<dim>1</dim>
				</port>
				<port id="1">
					<dim>24</dim>
					<dim>1</dim>
					<dim>1</dim>
					<dim>1</dim>
				</port>
				<port id="2">
					<dim>24</dim>
					<dim>1</dim>
					<dim>1</dim>
					<dim>1</dim>
				</port>
				<port id="3">
					<dim>24</dim>
					<dim>1</dim>
					<dim>1</dim>
					<dim>1</dim>
				</port>
				<port id="4">
					<dim>24</dim>
					<dim>1</dim>
					<dim>1</dim>
					<dim>1</dim>
				</port>
			</input>
			<output>
				<port id="5" precision="FP32">
					<dim>24</dim>
					<dim>16</dim>
					<dim>1</dim>
					<dim>1</dim>
				</port>
			</output>
		</layer>
		<layer id="126" name="L0014_Conv2d_BN/WithoutBiases" type="Convolution" version="opset1">
			<data dilations="1,1" output_padding="0,0" pads_begin="0,0" pads_end="0,0" strides="1,1"/>
			<input>
				<port id="0">
					<dim>1</dim>
					<dim>16</dim>
					<dim>256</dim>
					<dim>448</dim>
				</port>
				<port id="1">
					<dim>24</dim>
					<dim>16</dim>
					<dim>1</dim>
					<dim>1</dim>
				</port>
			</input>
			<output>
				<port id="2" precision="FP32">
					<dim>1</dim>
					<dim>24</dim>
					<dim>256</dim>
					<dim>448</dim>
				</port>
			</output>
		</layer>
		<layer id="127" name="L0014_Conv2d_BN/Dims5630/copy_const855_const" type="Const" version="opset1">
			<data element_type="f32" offset="7696" shape="1,24,1,1" size="96"/>
			<output>
				<port id="1" precision="FP32">
					<dim>1</dim>
					<dim>24</dim>
					<dim>1</dim>
					<dim>1</dim>
				</port>
			</output>
		</layer>
		<layer id="128" name="L0014_Conv2d_BN" type="Add" version="opset1">
			<input>
				<port id="0">
					<dim>1</dim>
					<dim>24</dim>
					<dim>256</dim>
					<dim>448</dim>
				</port>
				<port id="1">
					<dim>1</dim>
					<dim>24</dim>
					<dim>1</dim>
					<dim>1</dim>
				</port>
			</input>
			<output>
				<port id="2" precision="FP32">
					<dim>1</dim>
					<dim>24</dim>
					<dim>256</dim>
					<dim>448</dim>
				</port>
			</output>
		</layer>
		<layer id="129" name="34713475_const" type="Const" version="opset1">
			<data element_type="f32" offset="7792" shape="" size="4"/>
			<output>
				<port id="1" precision="FP32"/>
			</output>
		</layer>
		<layer id="130" name="34723476_const" type="Const" version="opset1">
			<data element_type="f32" offset="7796" shape="" size="4"/>
			<output>
				<port id="1" precision="FP32"/>
			</output>
		</layer>
		<layer id="131" name="34733477_const" type="Const" version="opset1">
			<data element_type="f32" offset="7792" shape="" size="4"/>
			<output>
				<port id="1" precision="FP32"/>
			</output>
		</layer>
		<layer id="132" name="34743478_const" type="Const" version="opset1">
			<data element_type="f32" offset="7796" shape="" size="4"/>
			<output>
				<port id="1" precision="FP32"/>
			</output>
		</layer>
		<layer id="133" name="L0015_AddBackward1/fq_input_1" type="FakeQuantize" version="opset1">
			<data levels="256"/>
			<input>
				<port id="0">
					<dim>1</dim>
					<dim>24</dim>
					<dim>256</dim>
					<dim>448</dim>
				</port>
				<port id="1"/>
				<port id="2"/>
				<port id="3"/>
				<port id="4"/>
			</input>
			<output>
				<port id="5" precision="FP32">
					<dim>1</dim>
					<dim>24</dim>
					<dim>256</dim>
					<dim>448</dim>
				</port>
			</output>
		</layer>
		<layer id="134" name="L0015_AddBackward1" type="Add" version="opset1">
			<input>
				<port id="0">
					<dim>1</dim>
					<dim>24</dim>
					<dim>256</dim>
					<dim>448</dim>
				</port>
				<port id="1">
					<dim>1</dim>
					<dim>24</dim>
					<dim>256</dim>
					<dim>448</dim>
				</port>
			</input>
			<output>
				<port id="2" precision="FP32">
					<dim>1</dim>
					<dim>24</dim>
					<dim>256</dim>
					<dim>448</dim>
				</port>
			</output>
		</layer>
		<layer id="135" name="L0016_ReLU" type="ReLU" version="opset1">
			<input>
				<port id="0">
					<dim>1</dim>
					<dim>24</dim>
					<dim>256</dim>
					<dim>448</dim>
				</port>
			</input>
			<output>
				<port id="1" precision="FP32">
					<dim>1</dim>
					<dim>24</dim>
					<dim>256</dim>
					<dim>448</dim>
				</port>
			</output>
		</layer>
		<layer id="136" name="37813785_const" type="Const" version="opset1">
			<data element_type="f32" offset="0" shape="" size="4"/>
			<output>
				<port id="1" precision="FP32"/>
			</output>
		</layer>
		<layer id="137" name="37823786_const" type="Const" version="opset1">
			<data element_type="f32" offset="7800" shape="" size="4"/>
			<output>
				<port id="1" precision="FP32"/>
			</output>
		</layer>
		<layer id="138" name="37833787_const" type="Const" version="opset1">
			<data element_type="f32" offset="0" shape="" size="4"/>
			<output>
				<port id="1" precision="FP32"/>
			</output>
		</layer>
		<layer id="139" name="37843788_const" type="Const" version="opset1">
			<data element_type="f32" offset="7800" shape="" size="4"/>
			<output>
				<port id="1" precision="FP32"/>
			</output>
		</layer>
		<layer id="140" name="L0017_Conv2d_BN/WithoutBiases/fq_input_0" type="FakeQuantize" version="opset1">
			<data levels="256"/>
			<input>
				<port id="0">
					<dim>1</dim>
					<dim>24</dim>
					<dim>256</dim>
					<dim>448</dim>
				</port>
				<port id="1"/>
				<port id="2"/>
				<port id="3"/>
				<port id="4"/>
			</input>
			<output>
				<port id="5" precision="FP32">
					<dim>1</dim>
					<dim>24</dim>
					<dim>256</dim>
					<dim>448</dim>
				</port>
			</output>
		</layer>
		<layer id="141" name="336/Output_0/Data__const859_const" type="Const" version="opset1">
			<data element_type="f32" offset="7804" shape="8,24,1,1" size="768"/>
			<output>
				<port id="1" precision="FP32">
					<dim>8</dim>
					<dim>24</dim>
					<dim>1</dim>
					<dim>1</dim>
				</port>
			</output>
		</layer>
		<layer id="142" name="37913795_const" type="Const" version="opset1">
			<data element_type="f32" offset="8572" shape="8,1,1,1" size="32"/>
			<output>
				<port id="1" precision="FP32">
					<dim>8</dim>
					<dim>1</dim>
					<dim>1</dim>
					<dim>1</dim>
				</port>
			</output>
		</layer>
		<layer id="143" name="37923796_const" type="Const" version="opset1">
			<data element_type="f32" offset="8604" shape="8,1,1,1" size="32"/>
			<output>
				<port id="1" precision="FP32">
					<dim>8</dim>
					<dim>1</dim>
					<dim>1</dim>
					<dim>1</dim>
				</port>
			</output>
		</layer>
		<layer id="144" name="37933797_const" type="Const" version="opset1">
			<data element_type="f32" offset="8572" shape="8,1,1,1" size="32"/>
			<output>
				<port id="1" precision="FP32">
					<dim>8</dim>
					<dim>1</dim>
					<dim>1</dim>
					<dim>1</dim>
				</port>
			</output>
		</layer>
		<layer id="145" name="37943798_const" type="Const" version="opset1">
			<data element_type="f32" offset="8604" shape="8,1,1,1" size="32"/>
			<output>
				<port id="1" precision="FP32">
					<dim>8</dim>
					<dim>1</dim>
					<dim>1</dim>
					<dim>1</dim>
				</port>
			</output>
		</layer>
		<layer id="146" name="L0017_Conv2d_BN/WithoutBiases/fq_weights_1" type="FakeQuantize" version="opset1">
			<data levels="255"/>
			<input>
				<port id="0">
					<dim>8</dim>
					<dim>24</dim>
					<dim>1</dim>
					<dim>1</dim>
				</port>
				<port id="1">
					<dim>8</dim>
					<dim>1</dim>
					<dim>1</dim>
					<dim>1</dim>
				</port>
				<port id="2">
					<dim>8</dim>
					<dim>1</dim>
					<dim>1</dim>
					<dim>1</dim>
				</port>
				<port id="3">
					<dim>8</dim>
					<dim>1</dim>
					<dim>1</dim>
					<dim>1</dim>
				</port>
				<port id="4">
					<dim>8</dim>
					<dim>1</dim>
					<dim>1</dim>
					<dim>1</dim>
				</port>
			</input>
			<output>
				<port id="5" precision="FP32">
					<dim>8</dim>
					<dim>24</dim>
					<dim>1</dim>
					<dim>1</dim>
				</port>
			</output>
		</layer>
		<layer id="147" name="L0017_Conv2d_BN/WithoutBiases" type="Convolution" version="opset1">
			<data dilations="1,1" output_padding="0,0" pads_begin="0,0" pads_end="0,0" strides="1,1"/>
			<input>
				<port id="0">
					<dim>1</dim>
					<dim>24</dim>
					<dim>256</dim>
					<dim>448</dim>
				</port>
				<port id="1">
					<dim>8</dim>
					<dim>24</dim>
					<dim>1</dim>
					<dim>1</dim>
				</port>
			</input>
			<output>
				<port id="2" precision="FP32">
					<dim>1</dim>
					<dim>8</dim>
					<dim>256</dim>
					<dim>448</dim>
				</port>
			</output>
		</layer>
		<layer id="148" name="L0017_Conv2d_BN/Dims5900/copy_const861_const" type="Const" version="opset1">
			<data element_type="f32" offset="8636" shape="1,8,1,1" size="32"/>
			<output>
				<port id="1" precision="FP32">
					<dim>1</dim>
					<dim>8</dim>
					<dim>1</dim>
					<dim>1</dim>
				</port>
			</output>
		</layer>
		<layer id="149" name="L0017_Conv2d_BN" type="Add" version="opset1">
			<input>
				<port id="0">
					<dim>1</dim>
					<dim>8</dim>
					<dim>256</dim>
					<dim>448</dim>
				</port>
				<port id="1">
					<dim>1</dim>
					<dim>8</dim>
					<dim>1</dim>
					<dim>1</dim>
				</port>
			</input>
			<output>
				<port id="2" precision="FP32">
					<dim>1</dim>
					<dim>8</dim>
					<dim>256</dim>
					<dim>448</dim>
				</port>
			</output>
		</layer>
		<layer id="150" name="L0018_ReLU" type="ReLU" version="opset1">
			<input>
				<port id="0">
					<dim>1</dim>
					<dim>8</dim>
					<dim>256</dim>
					<dim>448</dim>
				</port>
			</input>
			<output>
				<port id="1" precision="FP32">
					<dim>1</dim>
					<dim>8</dim>
					<dim>256</dim>
					<dim>448</dim>
				</port>
			</output>
		</layer>
		<layer id="151" name="43114315_const" type="Const" version="opset1">
			<data element_type="f32" offset="2668" shape="1,8,1,1" size="32"/>
			<output>
				<port id="1" precision="FP32">
					<dim>1</dim>
					<dim>8</dim>
					<dim>1</dim>
					<dim>1</dim>
				</port>
			</output>
		</layer>
		<layer id="152" name="43124316_const" type="Const" version="opset1">
			<data element_type="f32" offset="8668" shape="1,8,1,1" size="32"/>
			<output>
				<port id="1" precision="FP32">
					<dim>1</dim>
					<dim>8</dim>
					<dim>1</dim>
					<dim>1</dim>
				</port>
			</output>
		</layer>
		<layer id="153" name="43134317_const" type="Const" version="opset1">
			<data element_type="f32" offset="2668" shape="1,8,1,1" size="32"/>
			<output>
				<port id="1" precision="FP32">
					<dim>1</dim>
					<dim>8</dim>
					<dim>1</dim>
					<dim>1</dim>
				</port>
			</output>
		</layer>
		<layer id="154" name="43144318_const" type="Const" version="opset1">
			<data element_type="f32" offset="8668" shape="1,8,1,1" size="32"/>
			<output>
				<port id="1" precision="FP32">
					<dim>1</dim>
					<dim>8</dim>
					<dim>1</dim>
					<dim>1</dim>
				</port>
			</output>
		</layer>
		<layer id="155" name="L0019_Conv2d_BN/WithoutBiases/fq_input_0" type="FakeQuantize" version="opset1">
			<data levels="256"/>
			<input>
				<port id="0">
					<dim>1</dim>
					<dim>8</dim>
					<dim>256</dim>
					<dim>448</dim>
				</port>
				<port id="1">
					<dim>1</dim>
					<dim>8</dim>
					<dim>1</dim>
					<dim>1</dim>
				</port>
				<port id="2">
					<dim>1</dim>
					<dim>8</dim>
					<dim>1</dim>
					<dim>1</dim>
				</port>
				<port id="3">
					<dim>1</dim>
					<dim>8</dim>
					<dim>1</dim>
					<dim>1</dim>
				</port>
				<port id="4">
					<dim>1</dim>
					<dim>8</dim>
					<dim>1</dim>
					<dim>1</dim>
				</port>
			</input>
			<output>
				<port id="5" precision="FP32">
					<dim>1</dim>
					<dim>8</dim>
					<dim>256</dim>
					<dim>448</dim>
				</port>
			</output>
		</layer>
		<layer id="156" name="17591556_const" type="Const" version="opset1">
			<data element_type="f32" offset="8700" shape="8,1,3,3" size="288"/>
			<output>
				<port id="1" precision="FP32">
					<dim>8</dim>
					<dim>1</dim>
					<dim>3</dim>
					<dim>3</dim>
				</port>
			</output>
		</layer>
		<layer id="157" name="43214325_const" type="Const" version="opset1">
			<data element_type="f32" offset="8988" shape="8,1,1,1" size="32"/>
			<output>
				<port id="1" precision="FP32">
					<dim>8</dim>
					<dim>1</dim>
					<dim>1</dim>
					<dim>1</dim>
				</port>
			</output>
		</layer>
		<layer id="158" name="43224326_const" type="Const" version="opset1">
			<data element_type="f32" offset="9020" shape="8,1,1,1" size="32"/>
			<output>
				<port id="1" precision="FP32">
					<dim>8</dim>
					<dim>1</dim>
					<dim>1</dim>
					<dim>1</dim>
				</port>
			</output>
		</layer>
		<layer id="159" name="43234327_const" type="Const" version="opset1">
			<data element_type="f32" offset="8988" shape="8,1,1,1" size="32"/>
			<output>
				<port id="1" precision="FP32">
					<dim>8</dim>
					<dim>1</dim>
					<dim>1</dim>
					<dim>1</dim>
				</port>
			</output>
		</layer>
		<layer id="160" name="43244328_const" type="Const" version="opset1">
			<data element_type="f32" offset="9020" shape="8,1,1,1" size="32"/>
			<output>
				<port id="1" precision="FP32">
					<dim>8</dim>
					<dim>1</dim>
					<dim>1</dim>
					<dim>1</dim>
				</port>
			</output>
		</layer>
		<layer id="161" name="L0019_Conv2d_BN/WithoutBiases/fq_weights_1" type="FakeQuantize" version="opset1">
			<data levels="255"/>
			<input>
				<port id="0">
					<dim>8</dim>
					<dim>1</dim>
					<dim>3</dim>
					<dim>3</dim>
				</port>
				<port id="1">
					<dim>8</dim>
					<dim>1</dim>
					<dim>1</dim>
					<dim>1</dim>
				</port>
				<port id="2">
					<dim>8</dim>
					<dim>1</dim>
					<dim>1</dim>
					<dim>1</dim>
				</port>
				<port id="3">
					<dim>8</dim>
					<dim>1</dim>
					<dim>1</dim>
					<dim>1</dim>
				</port>
				<port id="4">
					<dim>8</dim>
					<dim>1</dim>
					<dim>1</dim>
					<dim>1</dim>
				</port>
			</input>
			<output>
				<port id="5" precision="FP32">
					<dim>8</dim>
					<dim>1</dim>
					<dim>3</dim>
					<dim>3</dim>
				</port>
			</output>
		</layer>
		<layer id="162" name="11033/value11035_const" type="Const" version="opset1">
			<data element_type="i64" offset="3084" shape="5" size="40"/>
			<output>
				<port id="1" precision="I64">
					<dim>5</dim>
				</port>
			</output>
		</layer>
		<layer id="163" name="11033" type="Reshape" version="opset1">
			<data special_zero="True"/>
			<input>
				<port id="0">
					<dim>8</dim>
					<dim>1</dim>
					<dim>3</dim>
					<dim>3</dim>
				</port>
				<port id="1">
					<dim>5</dim>
				</port>
			</input>
			<output>
				<port id="2" precision="FP32">
					<dim>8</dim>
					<dim>1</dim>
					<dim>1</dim>
					<dim>3</dim>
					<dim>3</dim>
				</port>
			</output>
		</layer>
		<layer id="164" name="L0019_Conv2d_BN/WithoutBiases" type="GroupConvolution" version="opset1">
			<data dilations="1,1" output_padding="0,0" pads_begin="1,1" pads_end="1,1" strides="1,1"/>
			<input>
				<port id="0">
					<dim>1</dim>
					<dim>8</dim>
					<dim>256</dim>
					<dim>448</dim>
				</port>
				<port id="1">
					<dim>8</dim>
					<dim>1</dim>
					<dim>1</dim>
					<dim>3</dim>
					<dim>3</dim>
				</port>
			</input>
			<output>
				<port id="2" precision="FP32">
					<dim>1</dim>
					<dim>8</dim>
					<dim>256</dim>
					<dim>448</dim>
				</port>
			</output>
		</layer>
		<layer id="165" name="L0019_Conv2d_BN/Dims5690/copy_const866_const" type="Const" version="opset1">
			<data element_type="f32" offset="9052" shape="1,8,1,1" size="32"/>
			<output>
				<port id="1" precision="FP32">
					<dim>1</dim>
					<dim>8</dim>
					<dim>1</dim>
					<dim>1</dim>
				</port>
			</output>
		</layer>
		<layer id="166" name="L0019_Conv2d_BN" type="Add" version="opset1">
			<input>
				<port id="0">
					<dim>1</dim>
					<dim>8</dim>
					<dim>256</dim>
					<dim>448</dim>
				</port>
				<port id="1">
					<dim>1</dim>
					<dim>8</dim>
					<dim>1</dim>
					<dim>1</dim>
				</port>
			</input>
			<output>
				<port id="2" precision="FP32">
					<dim>1</dim>
					<dim>8</dim>
					<dim>256</dim>
					<dim>448</dim>
				</port>
			</output>
		</layer>
		<layer id="167" name="L0020_ReLU" type="ReLU" version="opset1">
			<input>
				<port id="0">
					<dim>1</dim>
					<dim>8</dim>
					<dim>256</dim>
					<dim>448</dim>
				</port>
			</input>
			<output>
				<port id="1" precision="FP32">
					<dim>1</dim>
					<dim>8</dim>
					<dim>256</dim>
					<dim>448</dim>
				</port>
			</output>
		</layer>
		<layer id="168" name="23412345_const" type="Const" version="opset1">
			<data element_type="f32" offset="0" shape="" size="4"/>
			<output>
				<port id="1" precision="FP32"/>
			</output>
		</layer>
		<layer id="169" name="23422346_const" type="Const" version="opset1">
			<data element_type="f32" offset="9084" shape="" size="4"/>
			<output>
				<port id="1" precision="FP32"/>
			</output>
		</layer>
		<layer id="170" name="23432347_const" type="Const" version="opset1">
			<data element_type="f32" offset="0" shape="" size="4"/>
			<output>
				<port id="1" precision="FP32"/>
			</output>
		</layer>
		<layer id="171" name="23442348_const" type="Const" version="opset1">
			<data element_type="f32" offset="9084" shape="" size="4"/>
			<output>
				<port id="1" precision="FP32"/>
			</output>
		</layer>
		<layer id="172" name="L0021_Conv2d_BN/WithoutBiases/fq_input_0" type="FakeQuantize" version="opset1">
			<data levels="256"/>
			<input>
				<port id="0">
					<dim>1</dim>
					<dim>8</dim>
					<dim>256</dim>
					<dim>448</dim>
				</port>
				<port id="1"/>
				<port id="2"/>
				<port id="3"/>
				<port id="4"/>
			</input>
			<output>
				<port id="5" precision="FP32">
					<dim>1</dim>
					<dim>8</dim>
					<dim>256</dim>
					<dim>448</dim>
				</port>
			</output>
		</layer>
		<layer id="173" name="528/Output_0/Data__const869_const" type="Const" version="opset1">
			<data element_type="f32" offset="9088" shape="24,8,1,1" size="768"/>
			<output>
				<port id="1" precision="FP32">
					<dim>24</dim>
					<dim>8</dim>
					<dim>1</dim>
					<dim>1</dim>
				</port>
			</output>
		</layer>
		<layer id="174" name="23512355_const" type="Const" version="opset1">
			<data element_type="f32" offset="9856" shape="24,1,1,1" size="96"/>
			<output>
				<port id="1" precision="FP32">
					<dim>24</dim>
					<dim>1</dim>
					<dim>1</dim>
					<dim>1</dim>
				</port>
			</output>
		</layer>
		<layer id="175" name="23522356_const" type="Const" version="opset1">
			<data element_type="f32" offset="9952" shape="24,1,1,1" size="96"/>
			<output>
				<port id="1" precision="FP32">
					<dim>24</dim>
					<dim>1</dim>
					<dim>1</dim>
					<dim>1</dim>
				</port>
			</output>
		</layer>
		<layer id="176" name="23532357_const" type="Const" version="opset1">
			<data element_type="f32" offset="9856" shape="24,1,1,1" size="96"/>
			<output>
				<port id="1" precision="FP32">
					<dim>24</dim>
					<dim>1</dim>
					<dim>1</dim>
					<dim>1</dim>
				</port>
			</output>
		</layer>
		<layer id="177" name="23542358_const" type="Const" version="opset1">
			<data element_type="f32" offset="9952" shape="24,1,1,1" size="96"/>
			<output>
				<port id="1" precision="FP32">
					<dim>24</dim>
					<dim>1</dim>
					<dim>1</dim>
					<dim>1</dim>
				</port>
			</output>
		</layer>
		<layer id="178" name="L0021_Conv2d_BN/WithoutBiases/fq_weights_1" type="FakeQuantize" version="opset1">
			<data levels="255"/>
			<input>
				<port id="0">
					<dim>24</dim>
					<dim>8</dim>
					<dim>1</dim>
					<dim>1</dim>
				</port>
				<port id="1">
					<dim>24</dim>
					<dim>1</dim>
					<dim>1</dim>
					<dim>1</dim>
				</port>
				<port id="2">
					<dim>24</dim>
					<dim>1</dim>
					<dim>1</dim>
					<dim>1</dim>
				</port>
				<port id="3">
					<dim>24</dim>
					<dim>1</dim>
					<dim>1</dim>
					<dim>1</dim>
				</port>
				<port id="4">
					<dim>24</dim>
					<dim>1</dim>
					<dim>1</dim>
					<dim>1</dim>
				</port>
			</input>
			<output>
				<port id="5" precision="FP32">
					<dim>24</dim>
					<dim>8</dim>
					<dim>1</dim>
					<dim>1</dim>
				</port>
			</output>
		</layer>
		<layer id="179" name="L0021_Conv2d_BN/WithoutBiases" type="Convolution" version="opset1">
			<data dilations="1,1" output_padding="0,0" pads_begin="0,0" pads_end="0,0" strides="1,1"/>
			<input>
				<port id="0">
					<dim>1</dim>
					<dim>8</dim>
					<dim>256</dim>
					<dim>448</dim>
				</port>
				<port id="1">
					<dim>24</dim>
					<dim>8</dim>
					<dim>1</dim>
					<dim>1</dim>
				</port>
			</input>
			<output>
				<port id="2" precision="FP32">
					<dim>1</dim>
					<dim>24</dim>
					<dim>256</dim>
					<dim>448</dim>
				</port>
			</output>
		</layer>
		<layer id="180" name="L0021_Conv2d_BN/Dims6266/copy_const871_const" type="Const" version="opset1">
			<data element_type="f32" offset="10048" shape="1,24,1,1" size="96"/>
			<output>
				<port id="1" precision="FP32">
					<dim>1</dim>
					<dim>24</dim>
					<dim>1</dim>
					<dim>1</dim>
				</port>
			</output>
		</layer>
		<layer id="181" name="L0021_Conv2d_BN" type="Add" version="opset1">
			<input>
				<port id="0">
					<dim>1</dim>
					<dim>24</dim>
					<dim>256</dim>
					<dim>448</dim>
				</port>
				<port id="1">
					<dim>1</dim>
					<dim>24</dim>
					<dim>1</dim>
					<dim>1</dim>
				</port>
			</input>
			<output>
				<port id="2" precision="FP32">
					<dim>1</dim>
					<dim>24</dim>
					<dim>256</dim>
					<dim>448</dim>
				</port>
			</output>
		</layer>
		<layer id="182" name="40714075_const" type="Const" version="opset1">
			<data element_type="f32" offset="10144" shape="" size="4"/>
			<output>
				<port id="1" precision="FP32"/>
			</output>
		</layer>
		<layer id="183" name="40724076_const" type="Const" version="opset1">
			<data element_type="f32" offset="10148" shape="" size="4"/>
			<output>
				<port id="1" precision="FP32"/>
			</output>
		</layer>
		<layer id="184" name="40734077_const" type="Const" version="opset1">
			<data element_type="f32" offset="10144" shape="" size="4"/>
			<output>
				<port id="1" precision="FP32"/>
			</output>
		</layer>
		<layer id="185" name="40744078_const" type="Const" version="opset1">
			<data element_type="f32" offset="10148" shape="" size="4"/>
			<output>
				<port id="1" precision="FP32"/>
			</output>
		</layer>
		<layer id="186" name="L0022_AddBackward1/fq_input_0" type="FakeQuantize" version="opset1">
			<data levels="256"/>
			<input>
				<port id="0">
					<dim>1</dim>
					<dim>24</dim>
					<dim>256</dim>
					<dim>448</dim>
				</port>
				<port id="1"/>
				<port id="2"/>
				<port id="3"/>
				<port id="4"/>
			</input>
			<output>
				<port id="5" precision="FP32">
					<dim>1</dim>
					<dim>24</dim>
					<dim>256</dim>
					<dim>448</dim>
				</port>
			</output>
		</layer>
		<layer id="187" name="L0022_AddBackward1" type="Add" version="opset1">
			<input>
				<port id="0">
					<dim>1</dim>
					<dim>24</dim>
					<dim>256</dim>
					<dim>448</dim>
				</port>
				<port id="1">
					<dim>1</dim>
					<dim>24</dim>
					<dim>256</dim>
					<dim>448</dim>
				</port>
			</input>
			<output>
				<port id="2" precision="FP32">
					<dim>1</dim>
					<dim>24</dim>
					<dim>256</dim>
					<dim>448</dim>
				</port>
			</output>
		</layer>
		<layer id="188" name="L0023_ReLU" type="ReLU" version="opset1">
			<input>
				<port id="0">
					<dim>1</dim>
					<dim>24</dim>
					<dim>256</dim>
					<dim>448</dim>
				</port>
			</input>
			<output>
				<port id="1" precision="FP32">
					<dim>1</dim>
					<dim>24</dim>
					<dim>256</dim>
					<dim>448</dim>
				</port>
			</output>
		</layer>
		<layer id="189" name="29312935_const" type="Const" version="opset1">
			<data element_type="f32" offset="0" shape="" size="4"/>
			<output>
				<port id="1" precision="FP32"/>
			</output>
		</layer>
		<layer id="190" name="29322936_const" type="Const" version="opset1">
			<data element_type="f32" offset="10152" shape="" size="4"/>
			<output>
				<port id="1" precision="FP32"/>
			</output>
		</layer>
		<layer id="191" name="29332937_const" type="Const" version="opset1">
			<data element_type="f32" offset="0" shape="" size="4"/>
			<output>
				<port id="1" precision="FP32"/>
			</output>
		</layer>
		<layer id="192" name="29342938_const" type="Const" version="opset1">
			<data element_type="f32" offset="10152" shape="" size="4"/>
			<output>
				<port id="1" precision="FP32"/>
			</output>
		</layer>
		<layer id="193" name="L0024_Conv2d_BN/WithoutBiases/fq_input_0" type="FakeQuantize" version="opset1">
			<data levels="256"/>
			<input>
				<port id="0">
					<dim>1</dim>
					<dim>24</dim>
					<dim>256</dim>
					<dim>448</dim>
				</port>
				<port id="1"/>
				<port id="2"/>
				<port id="3"/>
				<port id="4"/>
			</input>
			<output>
				<port id="5" precision="FP32">
					<dim>1</dim>
					<dim>24</dim>
					<dim>256</dim>
					<dim>448</dim>
				</port>
			</output>
		</layer>
		<layer id="194" name="372/Output_0/Data__const875_const" type="Const" version="opset1">
			<data element_type="f32" offset="10156" shape="8,24,1,1" size="768"/>
			<output>
				<port id="1" precision="FP32">
					<dim>8</dim>
					<dim>24</dim>
					<dim>1</dim>
					<dim>1</dim>
				</port>
			</output>
		</layer>
		<layer id="195" name="29412945_const" type="Const" version="opset1">
			<data element_type="f32" offset="10924" shape="8,1,1,1" size="32"/>
			<output>
				<port id="1" precision="FP32">
					<dim>8</dim>
					<dim>1</dim>
					<dim>1</dim>
					<dim>1</dim>
				</port>
			</output>
		</layer>
		<layer id="196" name="29422946_const" type="Const" version="opset1">
			<data element_type="f32" offset="10956" shape="8,1,1,1" size="32"/>
			<output>
				<port id="1" precision="FP32">
					<dim>8</dim>
					<dim>1</dim>
					<dim>1</dim>
					<dim>1</dim>
				</port>
			</output>
		</layer>
		<layer id="197" name="29432947_const" type="Const" version="opset1">
			<data element_type="f32" offset="10924" shape="8,1,1,1" size="32"/>
			<output>
				<port id="1" precision="FP32">
					<dim>8</dim>
					<dim>1</dim>
					<dim>1</dim>
					<dim>1</dim>
				</port>
			</output>
		</layer>
		<layer id="198" name="29442948_const" type="Const" version="opset1">
			<data element_type="f32" offset="10956" shape="8,1,1,1" size="32"/>
			<output>
				<port id="1" precision="FP32">
					<dim>8</dim>
					<dim>1</dim>
					<dim>1</dim>
					<dim>1</dim>
				</port>
			</output>
		</layer>
		<layer id="199" name="L0024_Conv2d_BN/WithoutBiases/fq_weights_1" type="FakeQuantize" version="opset1">
			<data levels="255"/>
			<input>
				<port id="0">
					<dim>8</dim>
					<dim>24</dim>
					<dim>1</dim>
					<dim>1</dim>
				</port>
				<port id="1">
					<dim>8</dim>
					<dim>1</dim>
					<dim>1</dim>
					<dim>1</dim>
				</port>
				<port id="2">
					<dim>8</dim>
					<dim>1</dim>
					<dim>1</dim>
					<dim>1</dim>
				</port>
				<port id="3">
					<dim>8</dim>
					<dim>1</dim>
					<dim>1</dim>
					<dim>1</dim>
				</port>
				<port id="4">
					<dim>8</dim>
					<dim>1</dim>
					<dim>1</dim>
					<dim>1</dim>
				</port>
			</input>
			<output>
				<port id="5" precision="FP32">
					<dim>8</dim>
					<dim>24</dim>
					<dim>1</dim>
					<dim>1</dim>
				</port>
			</output>
		</layer>
		<layer id="200" name="L0024_Conv2d_BN/WithoutBiases" type="Convolution" version="opset1">
			<data dilations="1,1" output_padding="0,0" pads_begin="0,0" pads_end="0,0" strides="1,1"/>
			<input>
				<port id="0">
					<dim>1</dim>
					<dim>24</dim>
					<dim>256</dim>
					<dim>448</dim>
				</port>
				<port id="1">
					<dim>8</dim>
					<dim>24</dim>
					<dim>1</dim>
					<dim>1</dim>
				</port>
			</input>
			<output>
				<port id="2" precision="FP32">
					<dim>1</dim>
					<dim>8</dim>
					<dim>256</dim>
					<dim>448</dim>
				</port>
			</output>
		</layer>
		<layer id="201" name="L0024_Conv2d_BN/Dims6110/copy_const877_const" type="Const" version="opset1">
			<data element_type="f32" offset="10988" shape="1,8,1,1" size="32"/>
			<output>
				<port id="1" precision="FP32">
					<dim>1</dim>
					<dim>8</dim>
					<dim>1</dim>
					<dim>1</dim>
				</port>
			</output>
		</layer>
		<layer id="202" name="L0024_Conv2d_BN" type="Add" version="opset1">
			<input>
				<port id="0">
					<dim>1</dim>
					<dim>8</dim>
					<dim>256</dim>
					<dim>448</dim>
				</port>
				<port id="1">
					<dim>1</dim>
					<dim>8</dim>
					<dim>1</dim>
					<dim>1</dim>
				</port>
			</input>
			<output>
				<port id="2" precision="FP32">
					<dim>1</dim>
					<dim>8</dim>
					<dim>256</dim>
					<dim>448</dim>
				</port>
			</output>
		</layer>
		<layer id="203" name="L0025_ReLU" type="ReLU" version="opset1">
			<input>
				<port id="0">
					<dim>1</dim>
					<dim>8</dim>
					<dim>256</dim>
					<dim>448</dim>
				</port>
			</input>
			<output>
				<port id="1" precision="FP32">
					<dim>1</dim>
					<dim>8</dim>
					<dim>256</dim>
					<dim>448</dim>
				</port>
			</output>
		</layer>
		<layer id="204" name="40114015_const" type="Const" version="opset1">
			<data element_type="f32" offset="2668" shape="1,8,1,1" size="32"/>
			<output>
				<port id="1" precision="FP32">
					<dim>1</dim>
					<dim>8</dim>
					<dim>1</dim>
					<dim>1</dim>
				</port>
			</output>
		</layer>
		<layer id="205" name="40124016_const" type="Const" version="opset1">
			<data element_type="f32" offset="11020" shape="1,8,1,1" size="32"/>
			<output>
				<port id="1" precision="FP32">
					<dim>1</dim>
					<dim>8</dim>
					<dim>1</dim>
					<dim>1</dim>
				</port>
			</output>
		</layer>
		<layer id="206" name="40134017_const" type="Const" version="opset1">
			<data element_type="f32" offset="2668" shape="1,8,1,1" size="32"/>
			<output>
				<port id="1" precision="FP32">
					<dim>1</dim>
					<dim>8</dim>
					<dim>1</dim>
					<dim>1</dim>
				</port>
			</output>
		</layer>
		<layer id="207" name="40144018_const" type="Const" version="opset1">
			<data element_type="f32" offset="11020" shape="1,8,1,1" size="32"/>
			<output>
				<port id="1" precision="FP32">
					<dim>1</dim>
					<dim>8</dim>
					<dim>1</dim>
					<dim>1</dim>
				</port>
			</output>
		</layer>
		<layer id="208" name="L0026_Conv2d_BN/WithoutBiases/fq_input_0" type="FakeQuantize" version="opset1">
			<data levels="256"/>
			<input>
				<port id="0">
					<dim>1</dim>
					<dim>8</dim>
					<dim>256</dim>
					<dim>448</dim>
				</port>
				<port id="1">
					<dim>1</dim>
					<dim>8</dim>
					<dim>1</dim>
					<dim>1</dim>
				</port>
				<port id="2">
					<dim>1</dim>
					<dim>8</dim>
					<dim>1</dim>
					<dim>1</dim>
				</port>
				<port id="3">
					<dim>1</dim>
					<dim>8</dim>
					<dim>1</dim>
					<dim>1</dim>
				</port>
				<port id="4">
					<dim>1</dim>
					<dim>8</dim>
					<dim>1</dim>
					<dim>1</dim>
				</port>
			</input>
			<output>
				<port id="5" precision="FP32">
					<dim>1</dim>
					<dim>8</dim>
					<dim>256</dim>
					<dim>448</dim>
				</port>
			</output>
		</layer>
		<layer id="209" name="17631558_const" type="Const" version="opset1">
			<data element_type="f32" offset="11052" shape="8,1,3,3" size="288"/>
			<output>
				<port id="1" precision="FP32">
					<dim>8</dim>
					<dim>1</dim>
					<dim>3</dim>
					<dim>3</dim>
				</port>
			</output>
		</layer>
		<layer id="210" name="40214025_const" type="Const" version="opset1">
			<data element_type="f32" offset="11340" shape="8,1,1,1" size="32"/>
			<output>
				<port id="1" precision="FP32">
					<dim>8</dim>
					<dim>1</dim>
					<dim>1</dim>
					<dim>1</dim>
				</port>
			</output>
		</layer>
		<layer id="211" name="40224026_const" type="Const" version="opset1">
			<data element_type="f32" offset="11372" shape="8,1,1,1" size="32"/>
			<output>
				<port id="1" precision="FP32">
					<dim>8</dim>
					<dim>1</dim>
					<dim>1</dim>
					<dim>1</dim>
				</port>
			</output>
		</layer>
		<layer id="212" name="40234027_const" type="Const" version="opset1">
			<data element_type="f32" offset="11340" shape="8,1,1,1" size="32"/>
			<output>
				<port id="1" precision="FP32">
					<dim>8</dim>
					<dim>1</dim>
					<dim>1</dim>
					<dim>1</dim>
				</port>
			</output>
		</layer>
		<layer id="213" name="40244028_const" type="Const" version="opset1">
			<data element_type="f32" offset="11372" shape="8,1,1,1" size="32"/>
			<output>
				<port id="1" precision="FP32">
					<dim>8</dim>
					<dim>1</dim>
					<dim>1</dim>
					<dim>1</dim>
				</port>
			</output>
		</layer>
		<layer id="214" name="L0026_Conv2d_BN/WithoutBiases/fq_weights_1" type="FakeQuantize" version="opset1">
			<data levels="255"/>
			<input>
				<port id="0">
					<dim>8</dim>
					<dim>1</dim>
					<dim>3</dim>
					<dim>3</dim>
				</port>
				<port id="1">
					<dim>8</dim>
					<dim>1</dim>
					<dim>1</dim>
					<dim>1</dim>
				</port>
				<port id="2">
					<dim>8</dim>
					<dim>1</dim>
					<dim>1</dim>
					<dim>1</dim>
				</port>
				<port id="3">
					<dim>8</dim>
					<dim>1</dim>
					<dim>1</dim>
					<dim>1</dim>
				</port>
				<port id="4">
					<dim>8</dim>
					<dim>1</dim>
					<dim>1</dim>
					<dim>1</dim>
				</port>
			</input>
			<output>
				<port id="5" precision="FP32">
					<dim>8</dim>
					<dim>1</dim>
					<dim>3</dim>
					<dim>3</dim>
				</port>
			</output>
		</layer>
		<layer id="215" name="11013/value11015_const" type="Const" version="opset1">
			<data element_type="i64" offset="3084" shape="5" size="40"/>
			<output>
				<port id="1" precision="I64">
					<dim>5</dim>
				</port>
			</output>
		</layer>
		<layer id="216" name="11013" type="Reshape" version="opset1">
			<data special_zero="True"/>
			<input>
				<port id="0">
					<dim>8</dim>
					<dim>1</dim>
					<dim>3</dim>
					<dim>3</dim>
				</port>
				<port id="1">
					<dim>5</dim>
				</port>
			</input>
			<output>
				<port id="2" precision="FP32">
					<dim>8</dim>
					<dim>1</dim>
					<dim>1</dim>
					<dim>3</dim>
					<dim>3</dim>
				</port>
			</output>
		</layer>
		<layer id="217" name="L0026_Conv2d_BN/WithoutBiases" type="GroupConvolution" version="opset1">
			<data dilations="1,1" output_padding="0,0" pads_begin="1,1" pads_end="1,1" strides="1,1"/>
			<input>
				<port id="0">
					<dim>1</dim>
					<dim>8</dim>
					<dim>256</dim>
					<dim>448</dim>
				</port>
				<port id="1">
					<dim>8</dim>
					<dim>1</dim>
					<dim>1</dim>
					<dim>3</dim>
					<dim>3</dim>
				</port>
			</input>
			<output>
				<port id="2" precision="FP32">
					<dim>1</dim>
					<dim>8</dim>
					<dim>256</dim>
					<dim>448</dim>
				</port>
			</output>
		</layer>
		<layer id="218" name="L0026_Conv2d_BN/Dims5720/copy_const882_const" type="Const" version="opset1">
			<data element_type="f32" offset="11404" shape="1,8,1,1" size="32"/>
			<output>
				<port id="1" precision="FP32">
					<dim>1</dim>
					<dim>8</dim>
					<dim>1</dim>
					<dim>1</dim>
				</port>
			</output>
		</layer>
		<layer id="219" name="L0026_Conv2d_BN" type="Add" version="opset1">
			<input>
				<port id="0">
					<dim>1</dim>
					<dim>8</dim>
					<dim>256</dim>
					<dim>448</dim>
				</port>
				<port id="1">
					<dim>1</dim>
					<dim>8</dim>
					<dim>1</dim>
					<dim>1</dim>
				</port>
			</input>
			<output>
				<port id="2" precision="FP32">
					<dim>1</dim>
					<dim>8</dim>
					<dim>256</dim>
					<dim>448</dim>
				</port>
			</output>
		</layer>
		<layer id="220" name="L0027_ReLU" type="ReLU" version="opset1">
			<input>
				<port id="0">
					<dim>1</dim>
					<dim>8</dim>
					<dim>256</dim>
					<dim>448</dim>
				</port>
			</input>
			<output>
				<port id="1" precision="FP32">
					<dim>1</dim>
					<dim>8</dim>
					<dim>256</dim>
					<dim>448</dim>
				</port>
			</output>
		</layer>
		<layer id="221" name="54215425_const" type="Const" version="opset1">
			<data element_type="f32" offset="0" shape="" size="4"/>
			<output>
				<port id="1" precision="FP32"/>
			</output>
		</layer>
		<layer id="222" name="54225426_const" type="Const" version="opset1">
			<data element_type="f32" offset="11436" shape="" size="4"/>
			<output>
				<port id="1" precision="FP32"/>
			</output>
		</layer>
		<layer id="223" name="54235427_const" type="Const" version="opset1">
			<data element_type="f32" offset="0" shape="" size="4"/>
			<output>
				<port id="1" precision="FP32"/>
			</output>
		</layer>
		<layer id="224" name="54245428_const" type="Const" version="opset1">
			<data element_type="f32" offset="11436" shape="" size="4"/>
			<output>
				<port id="1" precision="FP32"/>
			</output>
		</layer>
		<layer id="225" name="L0028_Conv2d_BN/WithoutBiases/fq_input_0" type="FakeQuantize" version="opset1">
			<data levels="256"/>
			<input>
				<port id="0">
					<dim>1</dim>
					<dim>8</dim>
					<dim>256</dim>
					<dim>448</dim>
				</port>
				<port id="1"/>
				<port id="2"/>
				<port id="3"/>
				<port id="4"/>
			</input>
			<output>
				<port id="5" precision="FP32">
					<dim>1</dim>
					<dim>8</dim>
					<dim>256</dim>
					<dim>448</dim>
				</port>
			</output>
		</layer>
		<layer id="226" name="382/Output_0/Data__const885_const" type="Const" version="opset1">
			<data element_type="f32" offset="11440" shape="32,8,1,1" size="1024"/>
			<output>
				<port id="1" precision="FP32">
					<dim>32</dim>
					<dim>8</dim>
					<dim>1</dim>
					<dim>1</dim>
				</port>
			</output>
		</layer>
		<layer id="227" name="54315435_const" type="Const" version="opset1">
			<data element_type="f32" offset="12464" shape="32,1,1,1" size="128"/>
			<output>
				<port id="1" precision="FP32">
					<dim>32</dim>
					<dim>1</dim>
					<dim>1</dim>
					<dim>1</dim>
				</port>
			</output>
		</layer>
		<layer id="228" name="54325436_const" type="Const" version="opset1">
			<data element_type="f32" offset="12592" shape="32,1,1,1" size="128"/>
			<output>
				<port id="1" precision="FP32">
					<dim>32</dim>
					<dim>1</dim>
					<dim>1</dim>
					<dim>1</dim>
				</port>
			</output>
		</layer>
		<layer id="229" name="54335437_const" type="Const" version="opset1">
			<data element_type="f32" offset="12464" shape="32,1,1,1" size="128"/>
			<output>
				<port id="1" precision="FP32">
					<dim>32</dim>
					<dim>1</dim>
					<dim>1</dim>
					<dim>1</dim>
				</port>
			</output>
		</layer>
		<layer id="230" name="54345438_const" type="Const" version="opset1">
			<data element_type="f32" offset="12592" shape="32,1,1,1" size="128"/>
			<output>
				<port id="1" precision="FP32">
					<dim>32</dim>
					<dim>1</dim>
					<dim>1</dim>
					<dim>1</dim>
				</port>
			</output>
		</layer>
		<layer id="231" name="L0028_Conv2d_BN/WithoutBiases/fq_weights_1" type="FakeQuantize" version="opset1">
			<data levels="255"/>
			<input>
				<port id="0">
					<dim>32</dim>
					<dim>8</dim>
					<dim>1</dim>
					<dim>1</dim>
				</port>
				<port id="1">
					<dim>32</dim>
					<dim>1</dim>
					<dim>1</dim>
					<dim>1</dim>
				</port>
				<port id="2">
					<dim>32</dim>
					<dim>1</dim>
					<dim>1</dim>
					<dim>1</dim>
				</port>
				<port id="3">
					<dim>32</dim>
					<dim>1</dim>
					<dim>1</dim>
					<dim>1</dim>
				</port>
				<port id="4">
					<dim>32</dim>
					<dim>1</dim>
					<dim>1</dim>
					<dim>1</dim>
				</port>
			</input>
			<output>
				<port id="5" precision="FP32">
					<dim>32</dim>
					<dim>8</dim>
					<dim>1</dim>
					<dim>1</dim>
				</port>
			</output>
		</layer>
		<layer id="232" name="L0028_Conv2d_BN/WithoutBiases" type="Convolution" version="opset1">
			<data dilations="1,1" output_padding="0,0" pads_begin="0,0" pads_end="0,0" strides="1,1"/>
			<input>
				<port id="0">
					<dim>1</dim>
					<dim>8</dim>
					<dim>256</dim>
					<dim>448</dim>
				</port>
				<port id="1">
					<dim>32</dim>
					<dim>8</dim>
					<dim>1</dim>
					<dim>1</dim>
				</port>
			</input>
			<output>
				<port id="2" precision="FP32">
					<dim>1</dim>
					<dim>32</dim>
					<dim>256</dim>
					<dim>448</dim>
				</port>
			</output>
		</layer>
		<layer id="233" name="L0028_Conv2d_BN/Dims5930/copy_const887_const" type="Const" version="opset1">
			<data element_type="f32" offset="12720" shape="1,32,1,1" size="128"/>
			<output>
				<port id="1" precision="FP32">
					<dim>1</dim>
					<dim>32</dim>
					<dim>1</dim>
					<dim>1</dim>
				</port>
			</output>
		</layer>
		<layer id="234" name="L0028_Conv2d_BN" type="Add" version="opset1">
			<input>
				<port id="0">
					<dim>1</dim>
					<dim>32</dim>
					<dim>256</dim>
					<dim>448</dim>
				</port>
				<port id="1">
					<dim>1</dim>
					<dim>32</dim>
					<dim>1</dim>
					<dim>1</dim>
				</port>
			</input>
			<output>
				<port id="2" precision="FP32">
					<dim>1</dim>
					<dim>32</dim>
					<dim>256</dim>
					<dim>448</dim>
				</port>
			</output>
		</layer>
		<layer id="235" name="42714275_const" type="Const" version="opset1">
			<data element_type="f32" offset="12848" shape="" size="4"/>
			<output>
				<port id="1" precision="FP32"/>
			</output>
		</layer>
		<layer id="236" name="42724276_const" type="Const" version="opset1">
			<data element_type="f32" offset="12852" shape="" size="4"/>
			<output>
				<port id="1" precision="FP32"/>
			</output>
		</layer>
		<layer id="237" name="42734277_const" type="Const" version="opset1">
			<data element_type="f32" offset="12848" shape="" size="4"/>
			<output>
				<port id="1" precision="FP32"/>
			</output>
		</layer>
		<layer id="238" name="42744278_const" type="Const" version="opset1">
			<data element_type="f32" offset="12852" shape="" size="4"/>
			<output>
				<port id="1" precision="FP32"/>
			</output>
		</layer>
		<layer id="239" name="L0030_AddBackward1/fq_input_0" type="FakeQuantize" version="opset1">
			<data levels="256"/>
			<input>
				<port id="0">
					<dim>1</dim>
					<dim>32</dim>
					<dim>256</dim>
					<dim>448</dim>
				</port>
				<port id="1"/>
				<port id="2"/>
				<port id="3"/>
				<port id="4"/>
			</input>
			<output>
				<port id="5" precision="FP32">
					<dim>1</dim>
					<dim>32</dim>
					<dim>256</dim>
					<dim>448</dim>
				</port>
			</output>
		</layer>
		<layer id="240" name="404/Output_0/Data__const889_const" type="Const" version="opset1">
			<data element_type="f32" offset="12856" shape="32,24,1,1" size="3072"/>
			<output>
				<port id="1" precision="FP32">
					<dim>32</dim>
					<dim>24</dim>
					<dim>1</dim>
					<dim>1</dim>
				</port>
			</output>
		</layer>
		<layer id="241" name="22712275_const" type="Const" version="opset1">
			<data element_type="f32" offset="15928" shape="32,1,1,1" size="128"/>
			<output>
				<port id="1" precision="FP32">
					<dim>32</dim>
					<dim>1</dim>
					<dim>1</dim>
					<dim>1</dim>
				</port>
			</output>
		</layer>
		<layer id="242" name="22722276_const" type="Const" version="opset1">
			<data element_type="f32" offset="16056" shape="32,1,1,1" size="128"/>
			<output>
				<port id="1" precision="FP32">
					<dim>32</dim>
					<dim>1</dim>
					<dim>1</dim>
					<dim>1</dim>
				</port>
			</output>
		</layer>
		<layer id="243" name="22732277_const" type="Const" version="opset1">
			<data element_type="f32" offset="15928" shape="32,1,1,1" size="128"/>
			<output>
				<port id="1" precision="FP32">
					<dim>32</dim>
					<dim>1</dim>
					<dim>1</dim>
					<dim>1</dim>
				</port>
			</output>
		</layer>
		<layer id="244" name="22742278_const" type="Const" version="opset1">
			<data element_type="f32" offset="16056" shape="32,1,1,1" size="128"/>
			<output>
				<port id="1" precision="FP32">
					<dim>32</dim>
					<dim>1</dim>
					<dim>1</dim>
					<dim>1</dim>
				</port>
			</output>
		</layer>
		<layer id="245" name="L0029_Conv2d_BN/WithoutBiases/fq_weights_1" type="FakeQuantize" version="opset1">
			<data levels="255"/>
			<input>
				<port id="0">
					<dim>32</dim>
					<dim>24</dim>
					<dim>1</dim>
					<dim>1</dim>
				</port>
				<port id="1">
					<dim>32</dim>
					<dim>1</dim>
					<dim>1</dim>
					<dim>1</dim>
				</port>
				<port id="2">
					<dim>32</dim>
					<dim>1</dim>
					<dim>1</dim>
					<dim>1</dim>
				</port>
				<port id="3">
					<dim>32</dim>
					<dim>1</dim>
					<dim>1</dim>
					<dim>1</dim>
				</port>
				<port id="4">
					<dim>32</dim>
					<dim>1</dim>
					<dim>1</dim>
					<dim>1</dim>
				</port>
			</input>
			<output>
				<port id="5" precision="FP32">
					<dim>32</dim>
					<dim>24</dim>
					<dim>1</dim>
					<dim>1</dim>
				</port>
			</output>
		</layer>
		<layer id="246" name="L0029_Conv2d_BN/WithoutBiases" type="Convolution" version="opset1">
			<data dilations="1,1" output_padding="0,0" pads_begin="0,0" pads_end="0,0" strides="1,1"/>
			<input>
				<port id="0">
					<dim>1</dim>
					<dim>24</dim>
					<dim>256</dim>
					<dim>448</dim>
				</port>
				<port id="1">
					<dim>32</dim>
					<dim>24</dim>
					<dim>1</dim>
					<dim>1</dim>
				</port>
			</input>
			<output>
				<port id="2" precision="FP32">
					<dim>1</dim>
					<dim>32</dim>
					<dim>256</dim>
					<dim>448</dim>
				</port>
			</output>
		</layer>
		<layer id="247" name="L0029_Conv2d_BN/Dims6152/copy_const891_const" type="Const" version="opset1">
			<data element_type="f32" offset="16184" shape="1,32,1,1" size="128"/>
			<output>
				<port id="1" precision="FP32">
					<dim>1</dim>
					<dim>32</dim>
					<dim>1</dim>
					<dim>1</dim>
				</port>
			</output>
		</layer>
		<layer id="248" name="L0029_Conv2d_BN" type="Add" version="opset1">
			<input>
				<port id="0">
					<dim>1</dim>
					<dim>32</dim>
					<dim>256</dim>
					<dim>448</dim>
				</port>
				<port id="1">
					<dim>1</dim>
					<dim>32</dim>
					<dim>1</dim>
					<dim>1</dim>
				</port>
			</input>
			<output>
				<port id="2" precision="FP32">
					<dim>1</dim>
					<dim>32</dim>
					<dim>256</dim>
					<dim>448</dim>
				</port>
			</output>
		</layer>
		<layer id="249" name="42814285_const" type="Const" version="opset1">
			<data element_type="f32" offset="16312" shape="" size="4"/>
			<output>
				<port id="1" precision="FP32"/>
			</output>
		</layer>
		<layer id="250" name="42824286_const" type="Const" version="opset1">
			<data element_type="f32" offset="16316" shape="" size="4"/>
			<output>
				<port id="1" precision="FP32"/>
			</output>
		</layer>
		<layer id="251" name="42834287_const" type="Const" version="opset1">
			<data element_type="f32" offset="16312" shape="" size="4"/>
			<output>
				<port id="1" precision="FP32"/>
			</output>
		</layer>
		<layer id="252" name="42844288_const" type="Const" version="opset1">
			<data element_type="f32" offset="16316" shape="" size="4"/>
			<output>
				<port id="1" precision="FP32"/>
			</output>
		</layer>
		<layer id="253" name="L0030_AddBackward1/fq_input_1" type="FakeQuantize" version="opset1">
			<data levels="256"/>
			<input>
				<port id="0">
					<dim>1</dim>
					<dim>32</dim>
					<dim>256</dim>
					<dim>448</dim>
				</port>
				<port id="1"/>
				<port id="2"/>
				<port id="3"/>
				<port id="4"/>
			</input>
			<output>
				<port id="5" precision="FP32">
					<dim>1</dim>
					<dim>32</dim>
					<dim>256</dim>
					<dim>448</dim>
				</port>
			</output>
		</layer>
		<layer id="254" name="L0030_AddBackward1" type="Add" version="opset1">
			<input>
				<port id="0">
					<dim>1</dim>
					<dim>32</dim>
					<dim>256</dim>
					<dim>448</dim>
				</port>
				<port id="1">
					<dim>1</dim>
					<dim>32</dim>
					<dim>256</dim>
					<dim>448</dim>
				</port>
			</input>
			<output>
				<port id="2" precision="FP32">
					<dim>1</dim>
					<dim>32</dim>
					<dim>256</dim>
					<dim>448</dim>
				</port>
			</output>
		</layer>
		<layer id="255" name="L0031_ReLU" type="ReLU" version="opset1">
			<input>
				<port id="0">
					<dim>1</dim>
					<dim>32</dim>
					<dim>256</dim>
					<dim>448</dim>
				</port>
			</input>
			<output>
				<port id="1" precision="FP32">
					<dim>1</dim>
					<dim>32</dim>
					<dim>256</dim>
					<dim>448</dim>
				</port>
			</output>
		</layer>
		<layer id="256" name="39613965_const" type="Const" version="opset1">
			<data element_type="f32" offset="0" shape="" size="4"/>
			<output>
				<port id="1" precision="FP32"/>
			</output>
		</layer>
		<layer id="257" name="39623966_const" type="Const" version="opset1">
			<data element_type="f32" offset="16320" shape="" size="4"/>
			<output>
				<port id="1" precision="FP32"/>
			</output>
		</layer>
		<layer id="258" name="39633967_const" type="Const" version="opset1">
			<data element_type="f32" offset="0" shape="" size="4"/>
			<output>
				<port id="1" precision="FP32"/>
			</output>
		</layer>
		<layer id="259" name="39643968_const" type="Const" version="opset1">
			<data element_type="f32" offset="16320" shape="" size="4"/>
			<output>
				<port id="1" precision="FP32"/>
			</output>
		</layer>
		<layer id="260" name="L0032_Conv2d_BN/WithoutBiases/fq_input_0" type="FakeQuantize" version="opset1">
			<data levels="256"/>
			<input>
				<port id="0">
					<dim>1</dim>
					<dim>32</dim>
					<dim>256</dim>
					<dim>448</dim>
				</port>
				<port id="1"/>
				<port id="2"/>
				<port id="3"/>
				<port id="4"/>
			</input>
			<output>
				<port id="5" precision="FP32">
					<dim>1</dim>
					<dim>32</dim>
					<dim>256</dim>
					<dim>448</dim>
				</port>
			</output>
		</layer>
		<layer id="261" name="416/Output_0/Data__const895_const" type="Const" version="opset1">
			<data element_type="f32" offset="16324" shape="8,32,1,1" size="1024"/>
			<output>
				<port id="1" precision="FP32">
					<dim>8</dim>
					<dim>32</dim>
					<dim>1</dim>
					<dim>1</dim>
				</port>
			</output>
		</layer>
		<layer id="262" name="39713975_const" type="Const" version="opset1">
			<data element_type="f32" offset="17348" shape="8,1,1,1" size="32"/>
			<output>
				<port id="1" precision="FP32">
					<dim>8</dim>
					<dim>1</dim>
					<dim>1</dim>
					<dim>1</dim>
				</port>
			</output>
		</layer>
		<layer id="263" name="39723976_const" type="Const" version="opset1">
			<data element_type="f32" offset="17380" shape="8,1,1,1" size="32"/>
			<output>
				<port id="1" precision="FP32">
					<dim>8</dim>
					<dim>1</dim>
					<dim>1</dim>
					<dim>1</dim>
				</port>
			</output>
		</layer>
		<layer id="264" name="39733977_const" type="Const" version="opset1">
			<data element_type="f32" offset="17348" shape="8,1,1,1" size="32"/>
			<output>
				<port id="1" precision="FP32">
					<dim>8</dim>
					<dim>1</dim>
					<dim>1</dim>
					<dim>1</dim>
				</port>
			</output>
		</layer>
		<layer id="265" name="39743978_const" type="Const" version="opset1">
			<data element_type="f32" offset="17380" shape="8,1,1,1" size="32"/>
			<output>
				<port id="1" precision="FP32">
					<dim>8</dim>
					<dim>1</dim>
					<dim>1</dim>
					<dim>1</dim>
				</port>
			</output>
		</layer>
		<layer id="266" name="L0032_Conv2d_BN/WithoutBiases/fq_weights_1" type="FakeQuantize" version="opset1">
			<data levels="255"/>
			<input>
				<port id="0">
					<dim>8</dim>
					<dim>32</dim>
					<dim>1</dim>
					<dim>1</dim>
				</port>
				<port id="1">
					<dim>8</dim>
					<dim>1</dim>
					<dim>1</dim>
					<dim>1</dim>
				</port>
				<port id="2">
					<dim>8</dim>
					<dim>1</dim>
					<dim>1</dim>
					<dim>1</dim>
				</port>
				<port id="3">
					<dim>8</dim>
					<dim>1</dim>
					<dim>1</dim>
					<dim>1</dim>
				</port>
				<port id="4">
					<dim>8</dim>
					<dim>1</dim>
					<dim>1</dim>
					<dim>1</dim>
				</port>
			</input>
			<output>
				<port id="5" precision="FP32">
					<dim>8</dim>
					<dim>32</dim>
					<dim>1</dim>
					<dim>1</dim>
				</port>
			</output>
		</layer>
		<layer id="267" name="L0032_Conv2d_BN/WithoutBiases" type="Convolution" version="opset1">
			<data dilations="1,1" output_padding="0,0" pads_begin="0,0" pads_end="0,0" strides="1,1"/>
			<input>
				<port id="0">
					<dim>1</dim>
					<dim>32</dim>
					<dim>256</dim>
					<dim>448</dim>
				</port>
				<port id="1">
					<dim>8</dim>
					<dim>32</dim>
					<dim>1</dim>
					<dim>1</dim>
				</port>
			</input>
			<output>
				<port id="2" precision="FP32">
					<dim>1</dim>
					<dim>8</dim>
					<dim>256</dim>
					<dim>448</dim>
				</port>
			</output>
		</layer>
		<layer id="268" name="L0032_Conv2d_BN/Dims5732/copy_const897_const" type="Const" version="opset1">
			<data element_type="f32" offset="17412" shape="1,8,1,1" size="32"/>
			<output>
				<port id="1" precision="FP32">
					<dim>1</dim>
					<dim>8</dim>
					<dim>1</dim>
					<dim>1</dim>
				</port>
			</output>
		</layer>
		<layer id="269" name="L0032_Conv2d_BN" type="Add" version="opset1">
			<input>
				<port id="0">
					<dim>1</dim>
					<dim>8</dim>
					<dim>256</dim>
					<dim>448</dim>
				</port>
				<port id="1">
					<dim>1</dim>
					<dim>8</dim>
					<dim>1</dim>
					<dim>1</dim>
				</port>
			</input>
			<output>
				<port id="2" precision="FP32">
					<dim>1</dim>
					<dim>8</dim>
					<dim>256</dim>
					<dim>448</dim>
				</port>
			</output>
		</layer>
		<layer id="270" name="L0033_ReLU" type="ReLU" version="opset1">
			<input>
				<port id="0">
					<dim>1</dim>
					<dim>8</dim>
					<dim>256</dim>
					<dim>448</dim>
				</port>
			</input>
			<output>
				<port id="1" precision="FP32">
					<dim>1</dim>
					<dim>8</dim>
					<dim>256</dim>
					<dim>448</dim>
				</port>
			</output>
		</layer>
		<layer id="271" name="57415745_const" type="Const" version="opset1">
			<data element_type="f32" offset="2668" shape="1,8,1,1" size="32"/>
			<output>
				<port id="1" precision="FP32">
					<dim>1</dim>
					<dim>8</dim>
					<dim>1</dim>
					<dim>1</dim>
				</port>
			</output>
		</layer>
		<layer id="272" name="57425746_const" type="Const" version="opset1">
			<data element_type="f32" offset="17444" shape="1,8,1,1" size="32"/>
			<output>
				<port id="1" precision="FP32">
					<dim>1</dim>
					<dim>8</dim>
					<dim>1</dim>
					<dim>1</dim>
				</port>
			</output>
		</layer>
		<layer id="273" name="57435747_const" type="Const" version="opset1">
			<data element_type="f32" offset="2668" shape="1,8,1,1" size="32"/>
			<output>
				<port id="1" precision="FP32">
					<dim>1</dim>
					<dim>8</dim>
					<dim>1</dim>
					<dim>1</dim>
				</port>
			</output>
		</layer>
		<layer id="274" name="57445748_const" type="Const" version="opset1">
			<data element_type="f32" offset="17444" shape="1,8,1,1" size="32"/>
			<output>
				<port id="1" precision="FP32">
					<dim>1</dim>
					<dim>8</dim>
					<dim>1</dim>
					<dim>1</dim>
				</port>
			</output>
		</layer>
		<layer id="275" name="L0034_Conv2d_BN/WithoutBiases/fq_input_0" type="FakeQuantize" version="opset1">
			<data levels="256"/>
			<input>
				<port id="0">
					<dim>1</dim>
					<dim>8</dim>
					<dim>256</dim>
					<dim>448</dim>
				</port>
				<port id="1">
					<dim>1</dim>
					<dim>8</dim>
					<dim>1</dim>
					<dim>1</dim>
				</port>
				<port id="2">
					<dim>1</dim>
					<dim>8</dim>
					<dim>1</dim>
					<dim>1</dim>
				</port>
				<port id="3">
					<dim>1</dim>
					<dim>8</dim>
					<dim>1</dim>
					<dim>1</dim>
				</port>
				<port id="4">
					<dim>1</dim>
					<dim>8</dim>
					<dim>1</dim>
					<dim>1</dim>
				</port>
			</input>
			<output>
				<port id="5" precision="FP32">
					<dim>1</dim>
					<dim>8</dim>
					<dim>256</dim>
					<dim>448</dim>
				</port>
			</output>
		</layer>
		<layer id="276" name="17671560_const" type="Const" version="opset1">
			<data element_type="f32" offset="17476" shape="8,1,3,3" size="288"/>
			<output>
				<port id="1" precision="FP32">
					<dim>8</dim>
					<dim>1</dim>
					<dim>3</dim>
					<dim>3</dim>
				</port>
			</output>
		</layer>
		<layer id="277" name="57515755_const" type="Const" version="opset1">
			<data element_type="f32" offset="17764" shape="8,1,1,1" size="32"/>
			<output>
				<port id="1" precision="FP32">
					<dim>8</dim>
					<dim>1</dim>
					<dim>1</dim>
					<dim>1</dim>
				</port>
			</output>
		</layer>
		<layer id="278" name="57525756_const" type="Const" version="opset1">
			<data element_type="f32" offset="17796" shape="8,1,1,1" size="32"/>
			<output>
				<port id="1" precision="FP32">
					<dim>8</dim>
					<dim>1</dim>
					<dim>1</dim>
					<dim>1</dim>
				</port>
			</output>
		</layer>
		<layer id="279" name="57535757_const" type="Const" version="opset1">
			<data element_type="f32" offset="17764" shape="8,1,1,1" size="32"/>
			<output>
				<port id="1" precision="FP32">
					<dim>8</dim>
					<dim>1</dim>
					<dim>1</dim>
					<dim>1</dim>
				</port>
			</output>
		</layer>
		<layer id="280" name="57545758_const" type="Const" version="opset1">
			<data element_type="f32" offset="17796" shape="8,1,1,1" size="32"/>
			<output>
				<port id="1" precision="FP32">
					<dim>8</dim>
					<dim>1</dim>
					<dim>1</dim>
					<dim>1</dim>
				</port>
			</output>
		</layer>
		<layer id="281" name="L0034_Conv2d_BN/WithoutBiases/fq_weights_1" type="FakeQuantize" version="opset1">
			<data levels="255"/>
			<input>
				<port id="0">
					<dim>8</dim>
					<dim>1</dim>
					<dim>3</dim>
					<dim>3</dim>
				</port>
				<port id="1">
					<dim>8</dim>
					<dim>1</dim>
					<dim>1</dim>
					<dim>1</dim>
				</port>
				<port id="2">
					<dim>8</dim>
					<dim>1</dim>
					<dim>1</dim>
					<dim>1</dim>
				</port>
				<port id="3">
					<dim>8</dim>
					<dim>1</dim>
					<dim>1</dim>
					<dim>1</dim>
				</port>
				<port id="4">
					<dim>8</dim>
					<dim>1</dim>
					<dim>1</dim>
					<dim>1</dim>
				</port>
			</input>
			<output>
				<port id="5" precision="FP32">
					<dim>8</dim>
					<dim>1</dim>
					<dim>3</dim>
					<dim>3</dim>
				</port>
			</output>
		</layer>
		<layer id="282" name="11101/value11103_const" type="Const" version="opset1">
			<data element_type="i64" offset="3084" shape="5" size="40"/>
			<output>
				<port id="1" precision="I64">
					<dim>5</dim>
				</port>
			</output>
		</layer>
		<layer id="283" name="11101" type="Reshape" version="opset1">
			<data special_zero="True"/>
			<input>
				<port id="0">
					<dim>8</dim>
					<dim>1</dim>
					<dim>3</dim>
					<dim>3</dim>
				</port>
				<port id="1">
					<dim>5</dim>
				</port>
			</input>
			<output>
				<port id="2" precision="FP32">
					<dim>8</dim>
					<dim>1</dim>
					<dim>1</dim>
					<dim>3</dim>
					<dim>3</dim>
				</port>
			</output>
		</layer>
		<layer id="284" name="L0034_Conv2d_BN/WithoutBiases" type="GroupConvolution" version="opset1">
			<data dilations="1,1" output_padding="0,0" pads_begin="1,1" pads_end="1,1" strides="1,1"/>
			<input>
				<port id="0">
					<dim>1</dim>
					<dim>8</dim>
					<dim>256</dim>
					<dim>448</dim>
				</port>
				<port id="1">
					<dim>8</dim>
					<dim>1</dim>
					<dim>1</dim>
					<dim>3</dim>
					<dim>3</dim>
				</port>
			</input>
			<output>
				<port id="2" precision="FP32">
					<dim>1</dim>
					<dim>8</dim>
					<dim>256</dim>
					<dim>448</dim>
				</port>
			</output>
		</layer>
		<layer id="285" name="L0034_Conv2d_BN/Dims5942/copy_const902_const" type="Const" version="opset1">
			<data element_type="f32" offset="17828" shape="1,8,1,1" size="32"/>
			<output>
				<port id="1" precision="FP32">
					<dim>1</dim>
					<dim>8</dim>
					<dim>1</dim>
					<dim>1</dim>
				</port>
			</output>
		</layer>
		<layer id="286" name="L0034_Conv2d_BN" type="Add" version="opset1">
			<input>
				<port id="0">
					<dim>1</dim>
					<dim>8</dim>
					<dim>256</dim>
					<dim>448</dim>
				</port>
				<port id="1">
					<dim>1</dim>
					<dim>8</dim>
					<dim>1</dim>
					<dim>1</dim>
				</port>
			</input>
			<output>
				<port id="2" precision="FP32">
					<dim>1</dim>
					<dim>8</dim>
					<dim>256</dim>
					<dim>448</dim>
				</port>
			</output>
		</layer>
		<layer id="287" name="L0035_ReLU" type="ReLU" version="opset1">
			<input>
				<port id="0">
					<dim>1</dim>
					<dim>8</dim>
					<dim>256</dim>
					<dim>448</dim>
				</port>
			</input>
			<output>
				<port id="1" precision="FP32">
					<dim>1</dim>
					<dim>8</dim>
					<dim>256</dim>
					<dim>448</dim>
				</port>
			</output>
		</layer>
		<layer id="288" name="28712875_const" type="Const" version="opset1">
			<data element_type="f32" offset="0" shape="" size="4"/>
			<output>
				<port id="1" precision="FP32"/>
			</output>
		</layer>
		<layer id="289" name="28722876_const" type="Const" version="opset1">
			<data element_type="f32" offset="17860" shape="" size="4"/>
			<output>
				<port id="1" precision="FP32"/>
			</output>
		</layer>
		<layer id="290" name="28732877_const" type="Const" version="opset1">
			<data element_type="f32" offset="0" shape="" size="4"/>
			<output>
				<port id="1" precision="FP32"/>
			</output>
		</layer>
		<layer id="291" name="28742878_const" type="Const" version="opset1">
			<data element_type="f32" offset="17860" shape="" size="4"/>
			<output>
				<port id="1" precision="FP32"/>
			</output>
		</layer>
		<layer id="292" name="L0036_Conv2d_BN/WithoutBiases/fq_input_0" type="FakeQuantize" version="opset1">
			<data levels="256"/>
			<input>
				<port id="0">
					<dim>1</dim>
					<dim>8</dim>
					<dim>256</dim>
					<dim>448</dim>
				</port>
				<port id="1"/>
				<port id="2"/>
				<port id="3"/>
				<port id="4"/>
			</input>
			<output>
				<port id="5" precision="FP32">
					<dim>1</dim>
					<dim>8</dim>
					<dim>256</dim>
					<dim>448</dim>
				</port>
			</output>
		</layer>
		<layer id="293" name="430/Output_0/Data__const905_const" type="Const" version="opset1">
			<data element_type="f32" offset="17864" shape="32,8,1,1" size="1024"/>
			<output>
				<port id="1" precision="FP32">
					<dim>32</dim>
					<dim>8</dim>
					<dim>1</dim>
					<dim>1</dim>
				</port>
			</output>
		</layer>
		<layer id="294" name="28812885_const" type="Const" version="opset1">
			<data element_type="f32" offset="18888" shape="32,1,1,1" size="128"/>
			<output>
				<port id="1" precision="FP32">
					<dim>32</dim>
					<dim>1</dim>
					<dim>1</dim>
					<dim>1</dim>
				</port>
			</output>
		</layer>
		<layer id="295" name="28822886_const" type="Const" version="opset1">
			<data element_type="f32" offset="19016" shape="32,1,1,1" size="128"/>
			<output>
				<port id="1" precision="FP32">
					<dim>32</dim>
					<dim>1</dim>
					<dim>1</dim>
					<dim>1</dim>
				</port>
			</output>
		</layer>
		<layer id="296" name="28832887_const" type="Const" version="opset1">
			<data element_type="f32" offset="18888" shape="32,1,1,1" size="128"/>
			<output>
				<port id="1" precision="FP32">
					<dim>32</dim>
					<dim>1</dim>
					<dim>1</dim>
					<dim>1</dim>
				</port>
			</output>
		</layer>
		<layer id="297" name="28842888_const" type="Const" version="opset1">
			<data element_type="f32" offset="19016" shape="32,1,1,1" size="128"/>
			<output>
				<port id="1" precision="FP32">
					<dim>32</dim>
					<dim>1</dim>
					<dim>1</dim>
					<dim>1</dim>
				</port>
			</output>
		</layer>
		<layer id="298" name="L0036_Conv2d_BN/WithoutBiases/fq_weights_1" type="FakeQuantize" version="opset1">
			<data levels="255"/>
			<input>
				<port id="0">
					<dim>32</dim>
					<dim>8</dim>
					<dim>1</dim>
					<dim>1</dim>
				</port>
				<port id="1">
					<dim>32</dim>
					<dim>1</dim>
					<dim>1</dim>
					<dim>1</dim>
				</port>
				<port id="2">
					<dim>32</dim>
					<dim>1</dim>
					<dim>1</dim>
					<dim>1</dim>
				</port>
				<port id="3">
					<dim>32</dim>
					<dim>1</dim>
					<dim>1</dim>
					<dim>1</dim>
				</port>
				<port id="4">
					<dim>32</dim>
					<dim>1</dim>
					<dim>1</dim>
					<dim>1</dim>
				</port>
			</input>
			<output>
				<port id="5" precision="FP32">
					<dim>32</dim>
					<dim>8</dim>
					<dim>1</dim>
					<dim>1</dim>
				</port>
			</output>
		</layer>
		<layer id="299" name="L0036_Conv2d_BN/WithoutBiases" type="Convolution" version="opset1">
			<data dilations="1,1" output_padding="0,0" pads_begin="0,0" pads_end="0,0" strides="1,1"/>
			<input>
				<port id="0">
					<dim>1</dim>
					<dim>8</dim>
					<dim>256</dim>
					<dim>448</dim>
				</port>
				<port id="1">
					<dim>32</dim>
					<dim>8</dim>
					<dim>1</dim>
					<dim>1</dim>
				</port>
			</input>
			<output>
				<port id="2" precision="FP32">
					<dim>1</dim>
					<dim>32</dim>
					<dim>256</dim>
					<dim>448</dim>
				</port>
			</output>
		</layer>
		<layer id="300" name="L0036_Conv2d_BN/Dims6182/copy_const907_const" type="Const" version="opset1">
			<data element_type="f32" offset="19144" shape="1,32,1,1" size="128"/>
			<output>
				<port id="1" precision="FP32">
					<dim>1</dim>
					<dim>32</dim>
					<dim>1</dim>
					<dim>1</dim>
				</port>
			</output>
		</layer>
		<layer id="301" name="L0036_Conv2d_BN" type="Add" version="opset1">
			<input>
				<port id="0">
					<dim>1</dim>
					<dim>32</dim>
					<dim>256</dim>
					<dim>448</dim>
				</port>
				<port id="1">
					<dim>1</dim>
					<dim>32</dim>
					<dim>1</dim>
					<dim>1</dim>
				</port>
			</input>
			<output>
				<port id="2" precision="FP32">
					<dim>1</dim>
					<dim>32</dim>
					<dim>256</dim>
					<dim>448</dim>
				</port>
			</output>
		</layer>
		<layer id="302" name="51515155_const" type="Const" version="opset1">
			<data element_type="f32" offset="19272" shape="" size="4"/>
			<output>
				<port id="1" precision="FP32"/>
			</output>
		</layer>
		<layer id="303" name="51525156_const" type="Const" version="opset1">
			<data element_type="f32" offset="19276" shape="" size="4"/>
			<output>
				<port id="1" precision="FP32"/>
			</output>
		</layer>
		<layer id="304" name="51535157_const" type="Const" version="opset1">
			<data element_type="f32" offset="19272" shape="" size="4"/>
			<output>
				<port id="1" precision="FP32"/>
			</output>
		</layer>
		<layer id="305" name="51545158_const" type="Const" version="opset1">
			<data element_type="f32" offset="19276" shape="" size="4"/>
			<output>
				<port id="1" precision="FP32"/>
			</output>
		</layer>
		<layer id="306" name="L0037_AddBackward1/fq_input_0" type="FakeQuantize" version="opset1">
			<data levels="256"/>
			<input>
				<port id="0">
					<dim>1</dim>
					<dim>32</dim>
					<dim>256</dim>
					<dim>448</dim>
				</port>
				<port id="1"/>
				<port id="2"/>
				<port id="3"/>
				<port id="4"/>
			</input>
			<output>
				<port id="5" precision="FP32">
					<dim>1</dim>
					<dim>32</dim>
					<dim>256</dim>
					<dim>448</dim>
				</port>
			</output>
		</layer>
		<layer id="307" name="L0037_AddBackward1" type="Add" version="opset1">
			<input>
				<port id="0">
					<dim>1</dim>
					<dim>32</dim>
					<dim>256</dim>
					<dim>448</dim>
				</port>
				<port id="1">
					<dim>1</dim>
					<dim>32</dim>
					<dim>256</dim>
					<dim>448</dim>
				</port>
			</input>
			<output>
				<port id="2" precision="FP32">
					<dim>1</dim>
					<dim>32</dim>
					<dim>256</dim>
					<dim>448</dim>
				</port>
			</output>
		</layer>
		<layer id="308" name="L0038_ReLU" type="ReLU" version="opset1">
			<input>
				<port id="0">
					<dim>1</dim>
					<dim>32</dim>
					<dim>256</dim>
					<dim>448</dim>
				</port>
			</input>
			<output>
				<port id="1" precision="FP32">
					<dim>1</dim>
					<dim>32</dim>
					<dim>256</dim>
					<dim>448</dim>
				</port>
			</output>
		</layer>
		<layer id="309" name="27012705_const" type="Const" version="opset1">
			<data element_type="f32" offset="0" shape="" size="4"/>
			<output>
				<port id="1" precision="FP32"/>
			</output>
		</layer>
		<layer id="310" name="27022706_const" type="Const" version="opset1">
			<data element_type="f32" offset="19280" shape="" size="4"/>
			<output>
				<port id="1" precision="FP32"/>
			</output>
		</layer>
		<layer id="311" name="27032707_const" type="Const" version="opset1">
			<data element_type="f32" offset="0" shape="" size="4"/>
			<output>
				<port id="1" precision="FP32"/>
			</output>
		</layer>
		<layer id="312" name="27042708_const" type="Const" version="opset1">
			<data element_type="f32" offset="19280" shape="" size="4"/>
			<output>
				<port id="1" precision="FP32"/>
			</output>
		</layer>
		<layer id="313" name="L0039_Conv2d_BN/WithoutBiases/fq_input_0" type="FakeQuantize" version="opset1">
			<data levels="256"/>
			<input>
				<port id="0">
					<dim>1</dim>
					<dim>32</dim>
					<dim>256</dim>
					<dim>448</dim>
				</port>
				<port id="1"/>
				<port id="2"/>
				<port id="3"/>
				<port id="4"/>
			</input>
			<output>
				<port id="5" precision="FP32">
					<dim>1</dim>
					<dim>32</dim>
					<dim>256</dim>
					<dim>448</dim>
				</port>
			</output>
		</layer>
		<layer id="314" name="334/Output_0/Data__const911_const" type="Const" version="opset1">
			<data element_type="f32" offset="19284" shape="16,32,2,2" size="8192"/>
			<output>
				<port id="1" precision="FP32">
					<dim>16</dim>
					<dim>32</dim>
					<dim>2</dim>
					<dim>2</dim>
				</port>
			</output>
		</layer>
		<layer id="315" name="27112715_const" type="Const" version="opset1">
			<data element_type="f32" offset="27476" shape="16,1,1,1" size="64"/>
			<output>
				<port id="1" precision="FP32">
					<dim>16</dim>
					<dim>1</dim>
					<dim>1</dim>
					<dim>1</dim>
				</port>
			</output>
		</layer>
		<layer id="316" name="27122716_const" type="Const" version="opset1">
			<data element_type="f32" offset="27540" shape="16,1,1,1" size="64"/>
			<output>
				<port id="1" precision="FP32">
					<dim>16</dim>
					<dim>1</dim>
					<dim>1</dim>
					<dim>1</dim>
				</port>
			</output>
		</layer>
		<layer id="317" name="27132717_const" type="Const" version="opset1">
			<data element_type="f32" offset="27476" shape="16,1,1,1" size="64"/>
			<output>
				<port id="1" precision="FP32">
					<dim>16</dim>
					<dim>1</dim>
					<dim>1</dim>
					<dim>1</dim>
				</port>
			</output>
		</layer>
		<layer id="318" name="27142718_const" type="Const" version="opset1">
			<data element_type="f32" offset="27540" shape="16,1,1,1" size="64"/>
			<output>
				<port id="1" precision="FP32">
					<dim>16</dim>
					<dim>1</dim>
					<dim>1</dim>
					<dim>1</dim>
				</port>
			</output>
		</layer>
		<layer id="319" name="L0039_Conv2d_BN/WithoutBiases/fq_weights_1" type="FakeQuantize" version="opset1">
			<data levels="255"/>
			<input>
				<port id="0">
					<dim>16</dim>
					<dim>32</dim>
					<dim>2</dim>
					<dim>2</dim>
				</port>
				<port id="1">
					<dim>16</dim>
					<dim>1</dim>
					<dim>1</dim>
					<dim>1</dim>
				</port>
				<port id="2">
					<dim>16</dim>
					<dim>1</dim>
					<dim>1</dim>
					<dim>1</dim>
				</port>
				<port id="3">
					<dim>16</dim>
					<dim>1</dim>
					<dim>1</dim>
					<dim>1</dim>
				</port>
				<port id="4">
					<dim>16</dim>
					<dim>1</dim>
					<dim>1</dim>
					<dim>1</dim>
				</port>
			</input>
			<output>
				<port id="5" precision="FP32">
					<dim>16</dim>
					<dim>32</dim>
					<dim>2</dim>
					<dim>2</dim>
				</port>
			</output>
		</layer>
		<layer id="320" name="L0039_Conv2d_BN/WithoutBiases" type="Convolution" version="opset1">
			<data dilations="1,1" output_padding="0,0" pads_begin="0,0" pads_end="0,0" strides="2,2"/>
			<input>
				<port id="0">
					<dim>1</dim>
					<dim>32</dim>
					<dim>256</dim>
					<dim>448</dim>
				</port>
				<port id="1">
					<dim>16</dim>
					<dim>32</dim>
					<dim>2</dim>
					<dim>2</dim>
				</port>
			</input>
			<output>
				<port id="2" precision="FP32">
					<dim>1</dim>
					<dim>16</dim>
					<dim>128</dim>
					<dim>224</dim>
				</port>
			</output>
		</layer>
		<layer id="321" name="L0039_Conv2d_BN/Dims5672/copy_const913_const" type="Const" version="opset1">
			<data element_type="f32" offset="27604" shape="1,16,1,1" size="64"/>
			<output>
				<port id="1" precision="FP32">
					<dim>1</dim>
					<dim>16</dim>
					<dim>1</dim>
					<dim>1</dim>
				</port>
			</output>
		</layer>
		<layer id="322" name="L0039_Conv2d_BN" type="Add" version="opset1">
			<input>
				<port id="0">
					<dim>1</dim>
					<dim>16</dim>
					<dim>128</dim>
					<dim>224</dim>
				</port>
				<port id="1">
					<dim>1</dim>
					<dim>16</dim>
					<dim>1</dim>
					<dim>1</dim>
				</port>
			</input>
			<output>
				<port id="2" precision="FP32">
					<dim>1</dim>
					<dim>16</dim>
					<dim>128</dim>
					<dim>224</dim>
				</port>
			</output>
		</layer>
		<layer id="323" name="L0040_ReLU" type="ReLU" version="opset1">
			<input>
				<port id="0">
					<dim>1</dim>
					<dim>16</dim>
					<dim>128</dim>
					<dim>224</dim>
				</port>
			</input>
			<output>
				<port id="1" precision="FP32">
					<dim>1</dim>
					<dim>16</dim>
					<dim>128</dim>
					<dim>224</dim>
				</port>
			</output>
		</layer>
		<layer id="324" name="48714875_const" type="Const" version="opset1">
			<data element_type="f32" offset="27668" shape="1,16,1,1" size="64"/>
			<output>
				<port id="1" precision="FP32">
					<dim>1</dim>
					<dim>16</dim>
					<dim>1</dim>
					<dim>1</dim>
				</port>
			</output>
		</layer>
		<layer id="325" name="48724876_const" type="Const" version="opset1">
			<data element_type="f32" offset="27732" shape="1,16,1,1" size="64"/>
			<output>
				<port id="1" precision="FP32">
					<dim>1</dim>
					<dim>16</dim>
					<dim>1</dim>
					<dim>1</dim>
				</port>
			</output>
		</layer>
		<layer id="326" name="48734877_const" type="Const" version="opset1">
			<data element_type="f32" offset="27668" shape="1,16,1,1" size="64"/>
			<output>
				<port id="1" precision="FP32">
					<dim>1</dim>
					<dim>16</dim>
					<dim>1</dim>
					<dim>1</dim>
				</port>
			</output>
		</layer>
		<layer id="327" name="48744878_const" type="Const" version="opset1">
			<data element_type="f32" offset="27732" shape="1,16,1,1" size="64"/>
			<output>
				<port id="1" precision="FP32">
					<dim>1</dim>
					<dim>16</dim>
					<dim>1</dim>
					<dim>1</dim>
				</port>
			</output>
		</layer>
		<layer id="328" name="L0041_Conv2d_BN/WithoutBiases/fq_input_0" type="FakeQuantize" version="opset1">
			<data levels="256"/>
			<input>
				<port id="0">
					<dim>1</dim>
					<dim>16</dim>
					<dim>128</dim>
					<dim>224</dim>
				</port>
				<port id="1">
					<dim>1</dim>
					<dim>16</dim>
					<dim>1</dim>
					<dim>1</dim>
				</port>
				<port id="2">
					<dim>1</dim>
					<dim>16</dim>
					<dim>1</dim>
					<dim>1</dim>
				</port>
				<port id="3">
					<dim>1</dim>
					<dim>16</dim>
					<dim>1</dim>
					<dim>1</dim>
				</port>
				<port id="4">
					<dim>1</dim>
					<dim>16</dim>
					<dim>1</dim>
					<dim>1</dim>
				</port>
			</input>
			<output>
				<port id="5" precision="FP32">
					<dim>1</dim>
					<dim>16</dim>
					<dim>128</dim>
					<dim>224</dim>
				</port>
			</output>
		</layer>
		<layer id="329" name="17711562_const" type="Const" version="opset1">
			<data element_type="f32" offset="27796" shape="16,1,3,3" size="576"/>
			<output>
				<port id="1" precision="FP32">
					<dim>16</dim>
					<dim>1</dim>
					<dim>3</dim>
					<dim>3</dim>
				</port>
			</output>
		</layer>
		<layer id="330" name="48814885_const" type="Const" version="opset1">
			<data element_type="f32" offset="28372" shape="16,1,1,1" size="64"/>
			<output>
				<port id="1" precision="FP32">
					<dim>16</dim>
					<dim>1</dim>
					<dim>1</dim>
					<dim>1</dim>
				</port>
			</output>
		</layer>
		<layer id="331" name="48824886_const" type="Const" version="opset1">
			<data element_type="f32" offset="28436" shape="16,1,1,1" size="64"/>
			<output>
				<port id="1" precision="FP32">
					<dim>16</dim>
					<dim>1</dim>
					<dim>1</dim>
					<dim>1</dim>
				</port>
			</output>
		</layer>
		<layer id="332" name="48834887_const" type="Const" version="opset1">
			<data element_type="f32" offset="28372" shape="16,1,1,1" size="64"/>
			<output>
				<port id="1" precision="FP32">
					<dim>16</dim>
					<dim>1</dim>
					<dim>1</dim>
					<dim>1</dim>
				</port>
			</output>
		</layer>
		<layer id="333" name="48844888_const" type="Const" version="opset1">
			<data element_type="f32" offset="28436" shape="16,1,1,1" size="64"/>
			<output>
				<port id="1" precision="FP32">
					<dim>16</dim>
					<dim>1</dim>
					<dim>1</dim>
					<dim>1</dim>
				</port>
			</output>
		</layer>
		<layer id="334" name="L0041_Conv2d_BN/WithoutBiases/fq_weights_1" type="FakeQuantize" version="opset1">
			<data levels="255"/>
			<input>
				<port id="0">
					<dim>16</dim>
					<dim>1</dim>
					<dim>3</dim>
					<dim>3</dim>
				</port>
				<port id="1">
					<dim>16</dim>
					<dim>1</dim>
					<dim>1</dim>
					<dim>1</dim>
				</port>
				<port id="2">
					<dim>16</dim>
					<dim>1</dim>
					<dim>1</dim>
					<dim>1</dim>
				</port>
				<port id="3">
					<dim>16</dim>
					<dim>1</dim>
					<dim>1</dim>
					<dim>1</dim>
				</port>
				<port id="4">
					<dim>16</dim>
					<dim>1</dim>
					<dim>1</dim>
					<dim>1</dim>
				</port>
			</input>
			<output>
				<port id="5" precision="FP32">
					<dim>16</dim>
					<dim>1</dim>
					<dim>3</dim>
					<dim>3</dim>
				</port>
			</output>
		</layer>
		<layer id="335" name="11057/value11059_const" type="Const" version="opset1">
			<data element_type="i64" offset="28500" shape="5" size="40"/>
			<output>
				<port id="1" precision="I64">
					<dim>5</dim>
				</port>
			</output>
		</layer>
		<layer id="336" name="11057" type="Reshape" version="opset1">
			<data special_zero="True"/>
			<input>
				<port id="0">
					<dim>16</dim>
					<dim>1</dim>
					<dim>3</dim>
					<dim>3</dim>
				</port>
				<port id="1">
					<dim>5</dim>
				</port>
			</input>
			<output>
				<port id="2" precision="FP32">
					<dim>16</dim>
					<dim>1</dim>
					<dim>1</dim>
					<dim>3</dim>
					<dim>3</dim>
				</port>
			</output>
		</layer>
		<layer id="337" name="L0041_Conv2d_BN/WithoutBiases" type="GroupConvolution" version="opset1">
			<data dilations="1,1" output_padding="0,0" pads_begin="1,1" pads_end="1,1" strides="1,1"/>
			<input>
				<port id="0">
					<dim>1</dim>
					<dim>16</dim>
					<dim>128</dim>
					<dim>224</dim>
				</port>
				<port id="1">
					<dim>16</dim>
					<dim>1</dim>
					<dim>1</dim>
					<dim>3</dim>
					<dim>3</dim>
				</port>
			</input>
			<output>
				<port id="2" precision="FP32">
					<dim>1</dim>
					<dim>16</dim>
					<dim>128</dim>
					<dim>224</dim>
				</port>
			</output>
		</layer>
		<layer id="338" name="L0041_Conv2d_BN/Dims5912/copy_const918_const" type="Const" version="opset1">
			<data element_type="f32" offset="28540" shape="1,16,1,1" size="64"/>
			<output>
				<port id="1" precision="FP32">
					<dim>1</dim>
					<dim>16</dim>
					<dim>1</dim>
					<dim>1</dim>
				</port>
			</output>
		</layer>
		<layer id="339" name="L0041_Conv2d_BN" type="Add" version="opset1">
			<input>
				<port id="0">
					<dim>1</dim>
					<dim>16</dim>
					<dim>128</dim>
					<dim>224</dim>
				</port>
				<port id="1">
					<dim>1</dim>
					<dim>16</dim>
					<dim>1</dim>
					<dim>1</dim>
				</port>
			</input>
			<output>
				<port id="2" precision="FP32">
					<dim>1</dim>
					<dim>16</dim>
					<dim>128</dim>
					<dim>224</dim>
				</port>
			</output>
		</layer>
		<layer id="340" name="L0042_ReLU" type="ReLU" version="opset1">
			<input>
				<port id="0">
					<dim>1</dim>
					<dim>16</dim>
					<dim>128</dim>
					<dim>224</dim>
				</port>
			</input>
			<output>
				<port id="1" precision="FP32">
					<dim>1</dim>
					<dim>16</dim>
					<dim>128</dim>
					<dim>224</dim>
				</port>
			</output>
		</layer>
		<layer id="341" name="36013605_const" type="Const" version="opset1">
			<data element_type="f32" offset="0" shape="" size="4"/>
			<output>
				<port id="1" precision="FP32"/>
			</output>
		</layer>
		<layer id="342" name="36023606_const" type="Const" version="opset1">
			<data element_type="f32" offset="28604" shape="" size="4"/>
			<output>
				<port id="1" precision="FP32"/>
			</output>
		</layer>
		<layer id="343" name="36033607_const" type="Const" version="opset1">
			<data element_type="f32" offset="0" shape="" size="4"/>
			<output>
				<port id="1" precision="FP32"/>
			</output>
		</layer>
		<layer id="344" name="36043608_const" type="Const" version="opset1">
			<data element_type="f32" offset="28604" shape="" size="4"/>
			<output>
				<port id="1" precision="FP32"/>
			</output>
		</layer>
		<layer id="345" name="L0043_Conv2d_BN/WithoutBiases/fq_input_0" type="FakeQuantize" version="opset1">
			<data levels="256"/>
			<input>
				<port id="0">
					<dim>1</dim>
					<dim>16</dim>
					<dim>128</dim>
					<dim>224</dim>
				</port>
				<port id="1"/>
				<port id="2"/>
				<port id="3"/>
				<port id="4"/>
			</input>
			<output>
				<port id="5" precision="FP32">
					<dim>1</dim>
					<dim>16</dim>
					<dim>128</dim>
					<dim>224</dim>
				</port>
			</output>
		</layer>
		<layer id="346" name="448/Output_0/Data__const921_const" type="Const" version="opset1">
			<data element_type="f32" offset="28608" shape="48,16,1,1" size="3072"/>
			<output>
				<port id="1" precision="FP32">
					<dim>48</dim>
					<dim>16</dim>
					<dim>1</dim>
					<dim>1</dim>
				</port>
			</output>
		</layer>
		<layer id="347" name="36113615_const" type="Const" version="opset1">
			<data element_type="f32" offset="31680" shape="48,1,1,1" size="192"/>
			<output>
				<port id="1" precision="FP32">
					<dim>48</dim>
					<dim>1</dim>
					<dim>1</dim>
					<dim>1</dim>
				</port>
			</output>
		</layer>
		<layer id="348" name="36123616_const" type="Const" version="opset1">
			<data element_type="f32" offset="31872" shape="48,1,1,1" size="192"/>
			<output>
				<port id="1" precision="FP32">
					<dim>48</dim>
					<dim>1</dim>
					<dim>1</dim>
					<dim>1</dim>
				</port>
			</output>
		</layer>
		<layer id="349" name="36133617_const" type="Const" version="opset1">
			<data element_type="f32" offset="31680" shape="48,1,1,1" size="192"/>
			<output>
				<port id="1" precision="FP32">
					<dim>48</dim>
					<dim>1</dim>
					<dim>1</dim>
					<dim>1</dim>
				</port>
			</output>
		</layer>
		<layer id="350" name="36143618_const" type="Const" version="opset1">
			<data element_type="f32" offset="31872" shape="48,1,1,1" size="192"/>
			<output>
				<port id="1" precision="FP32">
					<dim>48</dim>
					<dim>1</dim>
					<dim>1</dim>
					<dim>1</dim>
				</port>
			</output>
		</layer>
		<layer id="351" name="L0043_Conv2d_BN/WithoutBiases/fq_weights_1" type="FakeQuantize" version="opset1">
			<data levels="255"/>
			<input>
				<port id="0">
					<dim>48</dim>
					<dim>16</dim>
					<dim>1</dim>
					<dim>1</dim>
				</port>
				<port id="1">
					<dim>48</dim>
					<dim>1</dim>
					<dim>1</dim>
					<dim>1</dim>
				</port>
				<port id="2">
					<dim>48</dim>
					<dim>1</dim>
					<dim>1</dim>
					<dim>1</dim>
				</port>
				<port id="3">
					<dim>48</dim>
					<dim>1</dim>
					<dim>1</dim>
					<dim>1</dim>
				</port>
				<port id="4">
					<dim>48</dim>
					<dim>1</dim>
					<dim>1</dim>
					<dim>1</dim>
				</port>
			</input>
			<output>
				<port id="5" precision="FP32">
					<dim>48</dim>
					<dim>16</dim>
					<dim>1</dim>
					<dim>1</dim>
				</port>
			</output>
		</layer>
		<layer id="352" name="L0043_Conv2d_BN/WithoutBiases" type="Convolution" version="opset1">
			<data dilations="1,1" output_padding="0,0" pads_begin="0,0" pads_end="0,0" strides="1,1"/>
			<input>
				<port id="0">
					<dim>1</dim>
					<dim>16</dim>
					<dim>128</dim>
					<dim>224</dim>
				</port>
				<port id="1">
					<dim>48</dim>
					<dim>16</dim>
					<dim>1</dim>
					<dim>1</dim>
				</port>
			</input>
			<output>
				<port id="2" precision="FP32">
					<dim>1</dim>
					<dim>48</dim>
					<dim>128</dim>
					<dim>224</dim>
				</port>
			</output>
		</layer>
		<layer id="353" name="L0043_Conv2d_BN/Dims5762/copy_const923_const" type="Const" version="opset1">
			<data element_type="f32" offset="32064" shape="1,48,1,1" size="192"/>
			<output>
				<port id="1" precision="FP32">
					<dim>1</dim>
					<dim>48</dim>
					<dim>1</dim>
					<dim>1</dim>
				</port>
			</output>
		</layer>
		<layer id="354" name="L0043_Conv2d_BN" type="Add" version="opset1">
			<input>
				<port id="0">
					<dim>1</dim>
					<dim>48</dim>
					<dim>128</dim>
					<dim>224</dim>
				</port>
				<port id="1">
					<dim>1</dim>
					<dim>48</dim>
					<dim>1</dim>
					<dim>1</dim>
				</port>
			</input>
			<output>
				<port id="2" precision="FP32">
					<dim>1</dim>
					<dim>48</dim>
					<dim>128</dim>
					<dim>224</dim>
				</port>
			</output>
		</layer>
		<layer id="355" name="25412545_const" type="Const" version="opset1">
			<data element_type="f32" offset="32256" shape="" size="4"/>
			<output>
				<port id="1" precision="FP32"/>
			</output>
		</layer>
		<layer id="356" name="25422546_const" type="Const" version="opset1">
			<data element_type="f32" offset="32260" shape="" size="4"/>
			<output>
				<port id="1" precision="FP32"/>
			</output>
		</layer>
		<layer id="357" name="25432547_const" type="Const" version="opset1">
			<data element_type="f32" offset="32256" shape="" size="4"/>
			<output>
				<port id="1" precision="FP32"/>
			</output>
		</layer>
		<layer id="358" name="25442548_const" type="Const" version="opset1">
			<data element_type="f32" offset="32260" shape="" size="4"/>
			<output>
				<port id="1" precision="FP32"/>
			</output>
		</layer>
		<layer id="359" name="L0046_AddBackward1/fq_input_0" type="FakeQuantize" version="opset1">
			<data levels="256"/>
			<input>
				<port id="0">
					<dim>1</dim>
					<dim>48</dim>
					<dim>128</dim>
					<dim>224</dim>
				</port>
				<port id="1"/>
				<port id="2"/>
				<port id="3"/>
				<port id="4"/>
			</input>
			<output>
				<port id="5" precision="FP32">
					<dim>1</dim>
					<dim>48</dim>
					<dim>128</dim>
					<dim>224</dim>
				</port>
			</output>
		</layer>
		<layer id="360" name="L0044_MaxPool2d" type="MaxPool" version="opset1">
			<data kernel="2,2" pads_begin="0,0" pads_end="0,0" rounding_type="ceil" strides="2,2"/>
			<input>
				<port id="0">
					<dim>1</dim>
					<dim>32</dim>
					<dim>256</dim>
					<dim>448</dim>
				</port>
			</input>
			<output>
				<port id="1" precision="FP32">
					<dim>1</dim>
					<dim>32</dim>
					<dim>128</dim>
					<dim>224</dim>
				</port>
			</output>
		</layer>
		<layer id="361" name="462/Output_0/Data__const926_const" type="Const" version="opset1">
			<data element_type="f32" offset="32264" shape="48,32,1,1" size="6144"/>
			<output>
				<port id="1" precision="FP32">
					<dim>48</dim>
					<dim>32</dim>
					<dim>1</dim>
					<dim>1</dim>
				</port>
			</output>
		</layer>
		<layer id="362" name="35313535_const" type="Const" version="opset1">
			<data element_type="f32" offset="38408" shape="48,1,1,1" size="192"/>
			<output>
				<port id="1" precision="FP32">
					<dim>48</dim>
					<dim>1</dim>
					<dim>1</dim>
					<dim>1</dim>
				</port>
			</output>
		</layer>
		<layer id="363" name="35323536_const" type="Const" version="opset1">
			<data element_type="f32" offset="38600" shape="48,1,1,1" size="192"/>
			<output>
				<port id="1" precision="FP32">
					<dim>48</dim>
					<dim>1</dim>
					<dim>1</dim>
					<dim>1</dim>
				</port>
			</output>
		</layer>
		<layer id="364" name="35333537_const" type="Const" version="opset1">
			<data element_type="f32" offset="38408" shape="48,1,1,1" size="192"/>
			<output>
				<port id="1" precision="FP32">
					<dim>48</dim>
					<dim>1</dim>
					<dim>1</dim>
					<dim>1</dim>
				</port>
			</output>
		</layer>
		<layer id="365" name="35343538_const" type="Const" version="opset1">
			<data element_type="f32" offset="38600" shape="48,1,1,1" size="192"/>
			<output>
				<port id="1" precision="FP32">
					<dim>48</dim>
					<dim>1</dim>
					<dim>1</dim>
					<dim>1</dim>
				</port>
			</output>
		</layer>
		<layer id="366" name="L0045_Conv2d_BN/WithoutBiases/fq_weights_1" type="FakeQuantize" version="opset1">
			<data levels="255"/>
			<input>
				<port id="0">
					<dim>48</dim>
					<dim>32</dim>
					<dim>1</dim>
					<dim>1</dim>
				</port>
				<port id="1">
					<dim>48</dim>
					<dim>1</dim>
					<dim>1</dim>
					<dim>1</dim>
				</port>
				<port id="2">
					<dim>48</dim>
					<dim>1</dim>
					<dim>1</dim>
					<dim>1</dim>
				</port>
				<port id="3">
					<dim>48</dim>
					<dim>1</dim>
					<dim>1</dim>
					<dim>1</dim>
				</port>
				<port id="4">
					<dim>48</dim>
					<dim>1</dim>
					<dim>1</dim>
					<dim>1</dim>
				</port>
			</input>
			<output>
				<port id="5" precision="FP32">
					<dim>48</dim>
					<dim>32</dim>
					<dim>1</dim>
					<dim>1</dim>
				</port>
			</output>
		</layer>
		<layer id="367" name="L0045_Conv2d_BN/WithoutBiases" type="Convolution" version="opset1">
			<data dilations="1,1" output_padding="0,0" pads_begin="0,0" pads_end="0,0" strides="1,1"/>
			<input>
				<port id="0">
					<dim>1</dim>
					<dim>32</dim>
					<dim>128</dim>
					<dim>224</dim>
				</port>
				<port id="1">
					<dim>48</dim>
					<dim>32</dim>
					<dim>1</dim>
					<dim>1</dim>
				</port>
			</input>
			<output>
				<port id="2" precision="FP32">
					<dim>1</dim>
					<dim>48</dim>
					<dim>128</dim>
					<dim>224</dim>
				</port>
			</output>
		</layer>
		<layer id="368" name="L0045_Conv2d_BN/Dims6218/copy_const928_const" type="Const" version="opset1">
			<data element_type="f32" offset="38792" shape="1,48,1,1" size="192"/>
			<output>
				<port id="1" precision="FP32">
					<dim>1</dim>
					<dim>48</dim>
					<dim>1</dim>
					<dim>1</dim>
				</port>
			</output>
		</layer>
		<layer id="369" name="L0045_Conv2d_BN" type="Add" version="opset1">
			<input>
				<port id="0">
					<dim>1</dim>
					<dim>48</dim>
					<dim>128</dim>
					<dim>224</dim>
				</port>
				<port id="1">
					<dim>1</dim>
					<dim>48</dim>
					<dim>1</dim>
					<dim>1</dim>
				</port>
			</input>
			<output>
				<port id="2" precision="FP32">
					<dim>1</dim>
					<dim>48</dim>
					<dim>128</dim>
					<dim>224</dim>
				</port>
			</output>
		</layer>
		<layer id="370" name="25512555_const" type="Const" version="opset1">
			<data element_type="f32" offset="38984" shape="" size="4"/>
			<output>
				<port id="1" precision="FP32"/>
			</output>
		</layer>
		<layer id="371" name="25522556_const" type="Const" version="opset1">
			<data element_type="f32" offset="38988" shape="" size="4"/>
			<output>
				<port id="1" precision="FP32"/>
			</output>
		</layer>
		<layer id="372" name="25532557_const" type="Const" version="opset1">
			<data element_type="f32" offset="38984" shape="" size="4"/>
			<output>
				<port id="1" precision="FP32"/>
			</output>
		</layer>
		<layer id="373" name="25542558_const" type="Const" version="opset1">
			<data element_type="f32" offset="38988" shape="" size="4"/>
			<output>
				<port id="1" precision="FP32"/>
			</output>
		</layer>
		<layer id="374" name="L0046_AddBackward1/fq_input_1" type="FakeQuantize" version="opset1">
			<data levels="256"/>
			<input>
				<port id="0">
					<dim>1</dim>
					<dim>48</dim>
					<dim>128</dim>
					<dim>224</dim>
				</port>
				<port id="1"/>
				<port id="2"/>
				<port id="3"/>
				<port id="4"/>
			</input>
			<output>
				<port id="5" precision="FP32">
					<dim>1</dim>
					<dim>48</dim>
					<dim>128</dim>
					<dim>224</dim>
				</port>
			</output>
		</layer>
		<layer id="375" name="L0046_AddBackward1" type="Add" version="opset1">
			<input>
				<port id="0">
					<dim>1</dim>
					<dim>48</dim>
					<dim>128</dim>
					<dim>224</dim>
				</port>
				<port id="1">
					<dim>1</dim>
					<dim>48</dim>
					<dim>128</dim>
					<dim>224</dim>
				</port>
			</input>
			<output>
				<port id="2" precision="FP32">
					<dim>1</dim>
					<dim>48</dim>
					<dim>128</dim>
					<dim>224</dim>
				</port>
			</output>
		</layer>
		<layer id="376" name="L0047_ReLU" type="ReLU" version="opset1">
			<input>
				<port id="0">
					<dim>1</dim>
					<dim>48</dim>
					<dim>128</dim>
					<dim>224</dim>
				</port>
			</input>
			<output>
				<port id="1" precision="FP32">
					<dim>1</dim>
					<dim>48</dim>
					<dim>128</dim>
					<dim>224</dim>
				</port>
			</output>
		</layer>
		<layer id="377" name="39813985_const" type="Const" version="opset1">
			<data element_type="f32" offset="0" shape="" size="4"/>
			<output>
				<port id="1" precision="FP32"/>
			</output>
		</layer>
		<layer id="378" name="39823986_const" type="Const" version="opset1">
			<data element_type="f32" offset="38992" shape="" size="4"/>
			<output>
				<port id="1" precision="FP32"/>
			</output>
		</layer>
		<layer id="379" name="39833987_const" type="Const" version="opset1">
			<data element_type="f32" offset="0" shape="" size="4"/>
			<output>
				<port id="1" precision="FP32"/>
			</output>
		</layer>
		<layer id="380" name="39843988_const" type="Const" version="opset1">
			<data element_type="f32" offset="38992" shape="" size="4"/>
			<output>
				<port id="1" precision="FP32"/>
			</output>
		</layer>
		<layer id="381" name="L0048_Conv2d_BN/WithoutBiases/fq_input_0" type="FakeQuantize" version="opset1">
			<data levels="256"/>
			<input>
				<port id="0">
					<dim>1</dim>
					<dim>48</dim>
					<dim>128</dim>
					<dim>224</dim>
				</port>
				<port id="1"/>
				<port id="2"/>
				<port id="3"/>
				<port id="4"/>
			</input>
			<output>
				<port id="5" precision="FP32">
					<dim>1</dim>
					<dim>48</dim>
					<dim>128</dim>
					<dim>224</dim>
				</port>
			</output>
		</layer>
		<layer id="382" name="388/Output_0/Data__const932_const" type="Const" version="opset1">
			<data element_type="f32" offset="38996" shape="16,48,1,1" size="3072"/>
			<output>
				<port id="1" precision="FP32">
					<dim>16</dim>
					<dim>48</dim>
					<dim>1</dim>
					<dim>1</dim>
				</port>
			</output>
		</layer>
		<layer id="383" name="39913995_const" type="Const" version="opset1">
			<data element_type="f32" offset="42068" shape="16,1,1,1" size="64"/>
			<output>
				<port id="1" precision="FP32">
					<dim>16</dim>
					<dim>1</dim>
					<dim>1</dim>
					<dim>1</dim>
				</port>
			</output>
		</layer>
		<layer id="384" name="39923996_const" type="Const" version="opset1">
			<data element_type="f32" offset="42132" shape="16,1,1,1" size="64"/>
			<output>
				<port id="1" precision="FP32">
					<dim>16</dim>
					<dim>1</dim>
					<dim>1</dim>
					<dim>1</dim>
				</port>
			</output>
		</layer>
		<layer id="385" name="39933997_const" type="Const" version="opset1">
			<data element_type="f32" offset="42068" shape="16,1,1,1" size="64"/>
			<output>
				<port id="1" precision="FP32">
					<dim>16</dim>
					<dim>1</dim>
					<dim>1</dim>
					<dim>1</dim>
				</port>
			</output>
		</layer>
		<layer id="386" name="39943998_const" type="Const" version="opset1">
			<data element_type="f32" offset="42132" shape="16,1,1,1" size="64"/>
			<output>
				<port id="1" precision="FP32">
					<dim>16</dim>
					<dim>1</dim>
					<dim>1</dim>
					<dim>1</dim>
				</port>
			</output>
		</layer>
		<layer id="387" name="L0048_Conv2d_BN/WithoutBiases/fq_weights_1" type="FakeQuantize" version="opset1">
			<data levels="255"/>
			<input>
				<port id="0">
					<dim>16</dim>
					<dim>48</dim>
					<dim>1</dim>
					<dim>1</dim>
				</port>
				<port id="1">
					<dim>16</dim>
					<dim>1</dim>
					<dim>1</dim>
					<dim>1</dim>
				</port>
				<port id="2">
					<dim>16</dim>
					<dim>1</dim>
					<dim>1</dim>
					<dim>1</dim>
				</port>
				<port id="3">
					<dim>16</dim>
					<dim>1</dim>
					<dim>1</dim>
					<dim>1</dim>
				</port>
				<port id="4">
					<dim>16</dim>
					<dim>1</dim>
					<dim>1</dim>
					<dim>1</dim>
				</port>
			</input>
			<output>
				<port id="5" precision="FP32">
					<dim>16</dim>
					<dim>48</dim>
					<dim>1</dim>
					<dim>1</dim>
				</port>
			</output>
		</layer>
		<layer id="388" name="L0048_Conv2d_BN/WithoutBiases" type="Convolution" version="opset1">
			<data dilations="1,1" output_padding="0,0" pads_begin="0,0" pads_end="0,0" strides="1,1"/>
			<input>
				<port id="0">
					<dim>1</dim>
					<dim>48</dim>
					<dim>128</dim>
					<dim>224</dim>
				</port>
				<port id="1">
					<dim>16</dim>
					<dim>48</dim>
					<dim>1</dim>
					<dim>1</dim>
				</port>
			</input>
			<output>
				<port id="2" precision="FP32">
					<dim>1</dim>
					<dim>16</dim>
					<dim>128</dim>
					<dim>224</dim>
				</port>
			</output>
		</layer>
		<layer id="389" name="L0048_Conv2d_BN/Dims6134/copy_const934_const" type="Const" version="opset1">
			<data element_type="f32" offset="42196" shape="1,16,1,1" size="64"/>
			<output>
				<port id="1" precision="FP32">
					<dim>1</dim>
					<dim>16</dim>
					<dim>1</dim>
					<dim>1</dim>
				</port>
			</output>
		</layer>
		<layer id="390" name="L0048_Conv2d_BN" type="Add" version="opset1">
			<input>
				<port id="0">
					<dim>1</dim>
					<dim>16</dim>
					<dim>128</dim>
					<dim>224</dim>
				</port>
				<port id="1">
					<dim>1</dim>
					<dim>16</dim>
					<dim>1</dim>
					<dim>1</dim>
				</port>
			</input>
			<output>
				<port id="2" precision="FP32">
					<dim>1</dim>
					<dim>16</dim>
					<dim>128</dim>
					<dim>224</dim>
				</port>
			</output>
		</layer>
		<layer id="391" name="L0049_ReLU" type="ReLU" version="opset1">
			<input>
				<port id="0">
					<dim>1</dim>
					<dim>16</dim>
					<dim>128</dim>
					<dim>224</dim>
				</port>
			</input>
			<output>
				<port id="1" precision="FP32">
					<dim>1</dim>
					<dim>16</dim>
					<dim>128</dim>
					<dim>224</dim>
				</port>
			</output>
		</layer>
		<layer id="392" name="53215325_const" type="Const" version="opset1">
			<data element_type="f32" offset="27668" shape="1,16,1,1" size="64"/>
			<output>
				<port id="1" precision="FP32">
					<dim>1</dim>
					<dim>16</dim>
					<dim>1</dim>
					<dim>1</dim>
				</port>
			</output>
		</layer>
		<layer id="393" name="53225326_const" type="Const" version="opset1">
			<data element_type="f32" offset="42260" shape="1,16,1,1" size="64"/>
			<output>
				<port id="1" precision="FP32">
					<dim>1</dim>
					<dim>16</dim>
					<dim>1</dim>
					<dim>1</dim>
				</port>
			</output>
		</layer>
		<layer id="394" name="53235327_const" type="Const" version="opset1">
			<data element_type="f32" offset="27668" shape="1,16,1,1" size="64"/>
			<output>
				<port id="1" precision="FP32">
					<dim>1</dim>
					<dim>16</dim>
					<dim>1</dim>
					<dim>1</dim>
				</port>
			</output>
		</layer>
		<layer id="395" name="53245328_const" type="Const" version="opset1">
			<data element_type="f32" offset="42260" shape="1,16,1,1" size="64"/>
			<output>
				<port id="1" precision="FP32">
					<dim>1</dim>
					<dim>16</dim>
					<dim>1</dim>
					<dim>1</dim>
				</port>
			</output>
		</layer>
		<layer id="396" name="L0050_Conv2d_BN/WithoutBiases/fq_input_0" type="FakeQuantize" version="opset1">
			<data levels="256"/>
			<input>
				<port id="0">
					<dim>1</dim>
					<dim>16</dim>
					<dim>128</dim>
					<dim>224</dim>
				</port>
				<port id="1">
					<dim>1</dim>
					<dim>16</dim>
					<dim>1</dim>
					<dim>1</dim>
				</port>
				<port id="2">
					<dim>1</dim>
					<dim>16</dim>
					<dim>1</dim>
					<dim>1</dim>
				</port>
				<port id="3">
					<dim>1</dim>
					<dim>16</dim>
					<dim>1</dim>
					<dim>1</dim>
				</port>
				<port id="4">
					<dim>1</dim>
					<dim>16</dim>
					<dim>1</dim>
					<dim>1</dim>
				</port>
			</input>
			<output>
				<port id="5" precision="FP32">
					<dim>1</dim>
					<dim>16</dim>
					<dim>128</dim>
					<dim>224</dim>
				</port>
			</output>
		</layer>
		<layer id="397" name="17751564_const" type="Const" version="opset1">
			<data element_type="f32" offset="42324" shape="16,1,3,3" size="576"/>
			<output>
				<port id="1" precision="FP32">
					<dim>16</dim>
					<dim>1</dim>
					<dim>3</dim>
					<dim>3</dim>
				</port>
			</output>
		</layer>
		<layer id="398" name="53315335_const" type="Const" version="opset1">
			<data element_type="f32" offset="42900" shape="16,1,1,1" size="64"/>
			<output>
				<port id="1" precision="FP32">
					<dim>16</dim>
					<dim>1</dim>
					<dim>1</dim>
					<dim>1</dim>
				</port>
			</output>
		</layer>
		<layer id="399" name="53325336_const" type="Const" version="opset1">
			<data element_type="f32" offset="42964" shape="16,1,1,1" size="64"/>
			<output>
				<port id="1" precision="FP32">
					<dim>16</dim>
					<dim>1</dim>
					<dim>1</dim>
					<dim>1</dim>
				</port>
			</output>
		</layer>
		<layer id="400" name="53335337_const" type="Const" version="opset1">
			<data element_type="f32" offset="42900" shape="16,1,1,1" size="64"/>
			<output>
				<port id="1" precision="FP32">
					<dim>16</dim>
					<dim>1</dim>
					<dim>1</dim>
					<dim>1</dim>
				</port>
			</output>
		</layer>
		<layer id="401" name="53345338_const" type="Const" version="opset1">
			<data element_type="f32" offset="42964" shape="16,1,1,1" size="64"/>
			<output>
				<port id="1" precision="FP32">
					<dim>16</dim>
					<dim>1</dim>
					<dim>1</dim>
					<dim>1</dim>
				</port>
			</output>
		</layer>
		<layer id="402" name="L0050_Conv2d_BN/WithoutBiases/fq_weights_1" type="FakeQuantize" version="opset1">
			<data levels="255"/>
			<input>
				<port id="0">
					<dim>16</dim>
					<dim>1</dim>
					<dim>3</dim>
					<dim>3</dim>
				</port>
				<port id="1">
					<dim>16</dim>
					<dim>1</dim>
					<dim>1</dim>
					<dim>1</dim>
				</port>
				<port id="2">
					<dim>16</dim>
					<dim>1</dim>
					<dim>1</dim>
					<dim>1</dim>
				</port>
				<port id="3">
					<dim>16</dim>
					<dim>1</dim>
					<dim>1</dim>
					<dim>1</dim>
				</port>
				<port id="4">
					<dim>16</dim>
					<dim>1</dim>
					<dim>1</dim>
					<dim>1</dim>
				</port>
			</input>
			<output>
				<port id="5" precision="FP32">
					<dim>16</dim>
					<dim>1</dim>
					<dim>3</dim>
					<dim>3</dim>
				</port>
			</output>
		</layer>
		<layer id="403" name="11085/value11087_const" type="Const" version="opset1">
			<data element_type="i64" offset="28500" shape="5" size="40"/>
			<output>
				<port id="1" precision="I64">
					<dim>5</dim>
				</port>
			</output>
		</layer>
		<layer id="404" name="11085" type="Reshape" version="opset1">
			<data special_zero="True"/>
			<input>
				<port id="0">
					<dim>16</dim>
					<dim>1</dim>
					<dim>3</dim>
					<dim>3</dim>
				</port>
				<port id="1">
					<dim>5</dim>
				</port>
			</input>
			<output>
				<port id="2" precision="FP32">
					<dim>16</dim>
					<dim>1</dim>
					<dim>1</dim>
					<dim>3</dim>
					<dim>3</dim>
				</port>
			</output>
		</layer>
		<layer id="405" name="L0050_Conv2d_BN/WithoutBiases" type="GroupConvolution" version="opset1">
			<data dilations="1,1" output_padding="0,0" pads_begin="1,1" pads_end="1,1" strides="1,1"/>
			<input>
				<port id="0">
					<dim>1</dim>
					<dim>16</dim>
					<dim>128</dim>
					<dim>224</dim>
				</port>
				<port id="1">
					<dim>16</dim>
					<dim>1</dim>
					<dim>1</dim>
					<dim>3</dim>
					<dim>3</dim>
				</port>
			</input>
			<output>
				<port id="2" precision="FP32">
					<dim>1</dim>
					<dim>16</dim>
					<dim>128</dim>
					<dim>224</dim>
				</port>
			</output>
		</layer>
		<layer id="406" name="L0050_Conv2d_BN/Dims6254/copy_const939_const" type="Const" version="opset1">
			<data element_type="f32" offset="43028" shape="1,16,1,1" size="64"/>
			<output>
				<port id="1" precision="FP32">
					<dim>1</dim>
					<dim>16</dim>
					<dim>1</dim>
					<dim>1</dim>
				</port>
			</output>
		</layer>
		<layer id="407" name="L0050_Conv2d_BN" type="Add" version="opset1">
			<input>
				<port id="0">
					<dim>1</dim>
					<dim>16</dim>
					<dim>128</dim>
					<dim>224</dim>
				</port>
				<port id="1">
					<dim>1</dim>
					<dim>16</dim>
					<dim>1</dim>
					<dim>1</dim>
				</port>
			</input>
			<output>
				<port id="2" precision="FP32">
					<dim>1</dim>
					<dim>16</dim>
					<dim>128</dim>
					<dim>224</dim>
				</port>
			</output>
		</layer>
		<layer id="408" name="L0051_ReLU" type="ReLU" version="opset1">
			<input>
				<port id="0">
					<dim>1</dim>
					<dim>16</dim>
					<dim>128</dim>
					<dim>224</dim>
				</port>
			</input>
			<output>
				<port id="1" precision="FP32">
					<dim>1</dim>
					<dim>16</dim>
					<dim>128</dim>
					<dim>224</dim>
				</port>
			</output>
		</layer>
		<layer id="409" name="40314035_const" type="Const" version="opset1">
			<data element_type="f32" offset="0" shape="" size="4"/>
			<output>
				<port id="1" precision="FP32"/>
			</output>
		</layer>
		<layer id="410" name="40324036_const" type="Const" version="opset1">
			<data element_type="f32" offset="43092" shape="" size="4"/>
			<output>
				<port id="1" precision="FP32"/>
			</output>
		</layer>
		<layer id="411" name="40334037_const" type="Const" version="opset1">
			<data element_type="f32" offset="0" shape="" size="4"/>
			<output>
				<port id="1" precision="FP32"/>
			</output>
		</layer>
		<layer id="412" name="40344038_const" type="Const" version="opset1">
			<data element_type="f32" offset="43092" shape="" size="4"/>
			<output>
				<port id="1" precision="FP32"/>
			</output>
		</layer>
		<layer id="413" name="L0052_Conv2d_BN/WithoutBiases/fq_input_0" type="FakeQuantize" version="opset1">
			<data levels="256"/>
			<input>
				<port id="0">
					<dim>1</dim>
					<dim>16</dim>
					<dim>128</dim>
					<dim>224</dim>
				</port>
				<port id="1"/>
				<port id="2"/>
				<port id="3"/>
				<port id="4"/>
			</input>
			<output>
				<port id="5" precision="FP32">
					<dim>1</dim>
…
		<edge from-layer="1766" from-port="1" to-layer="1770" to-port="1"/>
		<edge from-layer="1767" from-port="1" to-layer="1770" to-port="2"/>
		<edge from-layer="1768" from-port="1" to-layer="1770" to-port="3"/>
		<edge from-layer="1769" from-port="1" to-layer="1770" to-port="4"/>
		<edge from-layer="1770" from-port="5" to-layer="1772" to-port="0"/>
		<edge from-layer="1771" from-port="1" to-layer="1772" to-port="1"/>
		<edge from-layer="1764" from-port="5" to-layer="1773" to-port="0"/>
		<edge from-layer="1772" from-port="2" to-layer="1773" to-port="1"/>
		<edge from-layer="1773" from-port="2" to-layer="1775" to-port="0"/>
		<edge from-layer="1774" from-port="1" to-layer="1775" to-port="1"/>
		<edge from-layer="1775" from-port="2" to-layer="1776" to-port="0"/>
		<edge from-layer="1776" from-port="1" to-layer="1781" to-port="0"/>
		<edge from-layer="1777" from-port="1" to-layer="1781" to-port="1"/>
		<edge from-layer="1778" from-port="1" to-layer="1781" to-port="2"/>
		<edge from-layer="1779" from-port="1" to-layer="1781" to-port="3"/>
		<edge from-layer="1780" from-port="1" to-layer="1781" to-port="4"/>
		<edge from-layer="1782" from-port="1" to-layer="1787" to-port="0"/>
		<edge from-layer="1783" from-port="1" to-layer="1787" to-port="1"/>
		<edge from-layer="1784" from-port="1" to-layer="1787" to-port="2"/>
		<edge from-layer="1785" from-port="1" to-layer="1787" to-port="3"/>
		<edge from-layer="1786" from-port="1" to-layer="1787" to-port="4"/>
		<edge from-layer="1781" from-port="5" to-layer="1788" to-port="0"/>
		<edge from-layer="1787" from-port="5" to-layer="1788" to-port="1"/>
		<edge from-layer="1788" from-port="2" to-layer="1790" to-port="0"/>
		<edge from-layer="1789" from-port="1" to-layer="1790" to-port="1"/>
		<edge from-layer="1790" from-port="2" to-layer="1795" to-port="0"/>
		<edge from-layer="1791" from-port="1" to-layer="1795" to-port="1"/>
		<edge from-layer="1792" from-port="1" to-layer="1795" to-port="2"/>
		<edge from-layer="1793" from-port="1" to-layer="1795" to-port="3"/>
		<edge from-layer="1794" from-port="1" to-layer="1795" to-port="4"/>
		<edge from-layer="1795" from-port="5" to-layer="1796" to-port="0"/>
		<edge from-layer="1749" from-port="5" to-layer="1796" to-port="1"/>
		<edge from-layer="1796" from-port="2" to-layer="1797" to-port="0"/>
		<edge from-layer="1797" from-port="1" to-layer="1802" to-port="0"/>
		<edge from-layer="1798" from-port="1" to-layer="1802" to-port="1"/>
		<edge from-layer="1799" from-port="1" to-layer="1802" to-port="2"/>
		<edge from-layer="1800" from-port="1" to-layer="1802" to-port="3"/>
		<edge from-layer="1801" from-port="1" to-layer="1802" to-port="4"/>
		<edge from-layer="1803" from-port="1" to-layer="1808" to-port="0"/>
		<edge from-layer="1804" from-port="1" to-layer="1808" to-port="1"/>
		<edge from-layer="1805" from-port="1" to-layer="1808" to-port="2"/>
		<edge from-layer="1806" from-port="1" to-layer="1808" to-port="3"/>
		<edge from-layer="1807" from-port="1" to-layer="1808" to-port="4"/>
		<edge from-layer="1802" from-port="5" to-layer="1809" to-port="0"/>
		<edge from-layer="1808" from-port="5" to-layer="1809" to-port="1"/>
		<edge from-layer="1809" from-port="2" to-layer="1811" to-port="0"/>
		<edge from-layer="1810" from-port="1" to-layer="1811" to-port="1"/>
		<edge from-layer="1811" from-port="2" to-layer="1812" to-port="0"/>
		<edge from-layer="1812" from-port="1" to-layer="1817" to-port="0"/>
		<edge from-layer="1813" from-port="1" to-layer="1817" to-port="1"/>
		<edge from-layer="1814" from-port="1" to-layer="1817" to-port="2"/>
		<edge from-layer="1815" from-port="1" to-layer="1817" to-port="3"/>
		<edge from-layer="1816" from-port="1" to-layer="1817" to-port="4"/>
		<edge from-layer="1818" from-port="1" to-layer="1823" to-port="0"/>
		<edge from-layer="1819" from-port="1" to-layer="1823" to-port="1"/>
		<edge from-layer="1820" from-port="1" to-layer="1823" to-port="2"/>
		<edge from-layer="1821" from-port="1" to-layer="1823" to-port="3"/>
		<edge from-layer="1822" from-port="1" to-layer="1823" to-port="4"/>
		<edge from-layer="1823" from-port="5" to-layer="1825" to-port="0"/>
		<edge from-layer="1824" from-port="1" to-layer="1825" to-port="1"/>
		<edge from-layer="1817" from-port="5" to-layer="1826" to-port="0"/>
		<edge from-layer="1825" from-port="2" to-layer="1826" to-port="1"/>
		<edge from-layer="1826" from-port="2" to-layer="1828" to-port="0"/>
		<edge from-layer="1827" from-port="1" to-layer="1828" to-port="1"/>
		<edge from-layer="1828" from-port="2" to-layer="1829" to-port="0"/>
		<edge from-layer="1829" from-port="1" to-layer="1834" to-port="0"/>
		<edge from-layer="1830" from-port="1" to-layer="1834" to-port="1"/>
		<edge from-layer="1831" from-port="1" to-layer="1834" to-port="2"/>
		<edge from-layer="1832" from-port="1" to-layer="1834" to-port="3"/>
		<edge from-layer="1833" from-port="1" to-layer="1834" to-port="4"/>
		<edge from-layer="1835" from-port="1" to-layer="1840" to-port="0"/>
		<edge from-layer="1836" from-port="1" to-layer="1840" to-port="1"/>
		<edge from-layer="1837" from-port="1" to-layer="1840" to-port="2"/>
		<edge from-layer="1838" from-port="1" to-layer="1840" to-port="3"/>
		<edge from-layer="1839" from-port="1" to-layer="1840" to-port="4"/>
		<edge from-layer="1834" from-port="5" to-layer="1841" to-port="0"/>
		<edge from-layer="1840" from-port="5" to-layer="1841" to-port="1"/>
		<edge from-layer="1841" from-port="2" to-layer="1843" to-port="0"/>
		<edge from-layer="1842" from-port="1" to-layer="1843" to-port="1"/>
		<edge from-layer="1843" from-port="2" to-layer="1848" to-port="0"/>
		<edge from-layer="1844" from-port="1" to-layer="1848" to-port="1"/>
		<edge from-layer="1845" from-port="1" to-layer="1848" to-port="2"/>
		<edge from-layer="1846" from-port="1" to-layer="1848" to-port="3"/>
		<edge from-layer="1847" from-port="1" to-layer="1848" to-port="4"/>
		<edge from-layer="1849" from-port="1" to-layer="1854" to-port="0"/>
		<edge from-layer="1850" from-port="1" to-layer="1854" to-port="1"/>
		<edge from-layer="1851" from-port="1" to-layer="1854" to-port="2"/>
		<edge from-layer="1852" from-port="1" to-layer="1854" to-port="3"/>
		<edge from-layer="1853" from-port="1" to-layer="1854" to-port="4"/>
		<edge from-layer="1802" from-port="5" to-layer="1855" to-port="0"/>
		<edge from-layer="1854" from-port="5" to-layer="1855" to-port="1"/>
		<edge from-layer="1855" from-port="2" to-layer="1857" to-port="0"/>
		<edge from-layer="1856" from-port="1" to-layer="1857" to-port="1"/>
		<edge from-layer="1857" from-port="2" to-layer="1862" to-port="0"/>
		<edge from-layer="1858" from-port="1" to-layer="1862" to-port="1"/>
		<edge from-layer="1859" from-port="1" to-layer="1862" to-port="2"/>
		<edge from-layer="1860" from-port="1" to-layer="1862" to-port="3"/>
		<edge from-layer="1861" from-port="1" to-layer="1862" to-port="4"/>
		<edge from-layer="1848" from-port="5" to-layer="1863" to-port="0"/>
		<edge from-layer="1862" from-port="5" to-layer="1863" to-port="1"/>
		<edge from-layer="1863" from-port="2" to-layer="1864" to-port="0"/>
		<edge from-layer="1864" from-port="1" to-layer="1869" to-port="0"/>
		<edge from-layer="1865" from-port="1" to-layer="1869" to-port="1"/>
		<edge from-layer="1866" from-port="1" to-layer="1869" to-port="2"/>
		<edge from-layer="1867" from-port="1" to-layer="1869" to-port="3"/>
		<edge from-layer="1868" from-port="1" to-layer="1869" to-port="4"/>
		<edge from-layer="1870" from-port="1" to-layer="1875" to-port="0"/>
		<edge from-layer="1871" from-port="1" to-layer="1875" to-port="1"/>
		<edge from-layer="1872" from-port="1" to-layer="1875" to-port="2"/>
		<edge from-layer="1873" from-port="1" to-layer="1875" to-port="3"/>
		<edge from-layer="1874" from-port="1" to-layer="1875" to-port="4"/>
		<edge from-layer="1869" from-port="5" to-layer="1876" to-port="0"/>
		<edge from-layer="1875" from-port="5" to-layer="1876" to-port="1"/>
		<edge from-layer="1876" from-port="2" to-layer="1878" to-port="0"/>
		<edge from-layer="1877" from-port="1" to-layer="1878" to-port="1"/>
		<edge from-layer="1878" from-port="2" to-layer="1879" to-port="0"/>
		<edge from-layer="1879" from-port="1" to-layer="1884" to-port="0"/>
		<edge from-layer="1880" from-port="1" to-layer="1884" to-port="1"/>
		<edge from-layer="1881" from-port="1" to-layer="1884" to-port="2"/>
		<edge from-layer="1882" from-port="1" to-layer="1884" to-port="3"/>
		<edge from-layer="1883" from-port="1" to-layer="1884" to-port="4"/>
		<edge from-layer="1885" from-port="1" to-layer="1890" to-port="0"/>
		<edge from-layer="1886" from-port="1" to-layer="1890" to-port="1"/>
		<edge from-layer="1887" from-port="1" to-layer="1890" to-port="2"/>
		<edge from-layer="1888" from-port="1" to-layer="1890" to-port="3"/>
		<edge from-layer="1889" from-port="1" to-layer="1890" to-port="4"/>
		<edge from-layer="1890" from-port="5" to-layer="1892" to-port="0"/>
		<edge from-layer="1891" from-port="1" to-layer="1892" to-port="1"/>
		<edge from-layer="1884" from-port="5" to-layer="1893" to-port="0"/>
		<edge from-layer="1892" from-port="2" to-layer="1893" to-port="1"/>
		<edge from-layer="1893" from-port="2" to-layer="1895" to-port="0"/>
		<edge from-layer="1894" from-port="1" to-layer="1895" to-port="1"/>
		<edge from-layer="1895" from-port="2" to-layer="1896" to-port="0"/>
		<edge from-layer="1896" from-port="1" to-layer="1901" to-port="0"/>
		<edge from-layer="1897" from-port="1" to-layer="1901" to-port="1"/>
		<edge from-layer="1898" from-port="1" to-layer="1901" to-port="2"/>
		<edge from-layer="1899" from-port="1" to-layer="1901" to-port="3"/>
		<edge from-layer="1900" from-port="1" to-layer="1901" to-port="4"/>
		<edge from-layer="1902" from-port="1" to-layer="1907" to-port="0"/>
		<edge from-layer="1903" from-port="1" to-layer="1907" to-port="1"/>
		<edge from-layer="1904" from-port="1" to-layer="1907" to-port="2"/>
		<edge from-layer="1905" from-port="1" to-layer="1907" to-port="3"/>
		<edge from-layer="1906" from-port="1" to-layer="1907" to-port="4"/>
		<edge from-layer="1901" from-port="5" to-layer="1908" to-port="0"/>
		<edge from-layer="1907" from-port="5" to-layer="1908" to-port="1"/>
		<edge from-layer="1908" from-port="2" to-layer="1910" to-port="0"/>
		<edge from-layer="1909" from-port="1" to-layer="1910" to-port="1"/>
		<edge from-layer="1910" from-port="2" to-layer="1915" to-port="0"/>
		<edge from-layer="1911" from-port="1" to-layer="1915" to-port="1"/>
		<edge from-layer="1912" from-port="1" to-layer="1915" to-port="2"/>
		<edge from-layer="1913" from-port="1" to-layer="1915" to-port="3"/>
		<edge from-layer="1914" from-port="1" to-layer="1915" to-port="4"/>
		<edge from-layer="1915" from-port="5" to-layer="1916" to-port="0"/>
		<edge from-layer="1869" from-port="5" to-layer="1916" to-port="1"/>
		<edge from-layer="1916" from-port="2" to-layer="1917" to-port="0"/>
		<edge from-layer="1917" from-port="1" to-layer="1922" to-port="0"/>
		<edge from-layer="1918" from-port="1" to-layer="1922" to-port="1"/>
		<edge from-layer="1919" from-port="1" to-layer="1922" to-port="2"/>
		<edge from-layer="1920" from-port="1" to-layer="1922" to-port="3"/>
		<edge from-layer="1921" from-port="1" to-layer="1922" to-port="4"/>
		<edge from-layer="1923" from-port="1" to-layer="1928" to-port="0"/>
		<edge from-layer="1924" from-port="1" to-layer="1928" to-port="1"/>
		<edge from-layer="1925" from-port="1" to-layer="1928" to-port="2"/>
		<edge from-layer="1926" from-port="1" to-layer="1928" to-port="3"/>
		<edge from-layer="1927" from-port="1" to-layer="1928" to-port="4"/>
		<edge from-layer="1922" from-port="5" to-layer="1929" to-port="0"/>
		<edge from-layer="1928" from-port="5" to-layer="1929" to-port="1"/>
		<edge from-layer="1929" from-port="2" to-layer="1931" to-port="0"/>
		<edge from-layer="1930" from-port="1" to-layer="1931" to-port="1"/>
		<edge from-layer="1931" from-port="2" to-layer="1932" to-port="0"/>
		<edge from-layer="1932" from-port="1" to-layer="1937" to-port="0"/>
		<edge from-layer="1933" from-port="1" to-layer="1937" to-port="1"/>
		<edge from-layer="1934" from-port="1" to-layer="1937" to-port="2"/>
		<edge from-layer="1935" from-port="1" to-layer="1937" to-port="3"/>
		<edge from-layer="1936" from-port="1" to-layer="1937" to-port="4"/>
		<edge from-layer="1938" from-port="1" to-layer="1943" to-port="0"/>
		<edge from-layer="1939" from-port="1" to-layer="1943" to-port="1"/>
		<edge from-layer="1940" from-port="1" to-layer="1943" to-port="2"/>
		<edge from-layer="1941" from-port="1" to-layer="1943" to-port="3"/>
		<edge from-layer="1942" from-port="1" to-layer="1943" to-port="4"/>
		<edge from-layer="1943" from-port="5" to-layer="1945" to-port="0"/>
		<edge from-layer="1944" from-port="1" to-layer="1945" to-port="1"/>
		<edge from-layer="1937" from-port="5" to-layer="1946" to-port="0"/>
		<edge from-layer="1945" from-port="2" to-layer="1946" to-port="1"/>
		<edge from-layer="1946" from-port="2" to-layer="1948" to-port="0"/>
		<edge from-layer="1947" from-port="1" to-layer="1948" to-port="1"/>
		<edge from-layer="1948" from-port="2" to-layer="1949" to-port="0"/>
		<edge from-layer="1949" from-port="1" to-layer="1954" to-port="0"/>
		<edge from-layer="1950" from-port="1" to-layer="1954" to-port="1"/>
		<edge from-layer="1951" from-port="1" to-layer="1954" to-port="2"/>
		<edge from-layer="1952" from-port="1" to-layer="1954" to-port="3"/>
		<edge from-layer="1953" from-port="1" to-layer="1954" to-port="4"/>
		<edge from-layer="1955" from-port="1" to-layer="1960" to-port="0"/>
		<edge from-layer="1956" from-port="1" to-layer="1960" to-port="1"/>
		<edge from-layer="1957" from-port="1" to-layer="1960" to-port="2"/>
		<edge from-layer="1958" from-port="1" to-layer="1960" to-port="3"/>
		<edge from-layer="1959" from-port="1" to-layer="1960" to-port="4"/>
		<edge from-layer="1954" from-port="5" to-layer="1961" to-port="0"/>
		<edge from-layer="1960" from-port="5" to-layer="1961" to-port="1"/>
		<edge from-layer="1961" from-port="2" to-layer="1963" to-port="0"/>
		<edge from-layer="1962" from-port="1" to-layer="1963" to-port="1"/>
		<edge from-layer="1963" from-port="2" to-layer="1968" to-port="0"/>
		<edge from-layer="1964" from-port="1" to-layer="1968" to-port="1"/>
		<edge from-layer="1965" from-port="1" to-layer="1968" to-port="2"/>
		<edge from-layer="1966" from-port="1" to-layer="1968" to-port="3"/>
		<edge from-layer="1967" from-port="1" to-layer="1968" to-port="4"/>
		<edge from-layer="1968" from-port="5" to-layer="1969" to-port="0"/>
		<edge from-layer="1922" from-port="5" to-layer="1969" to-port="1"/>
		<edge from-layer="1969" from-port="2" to-layer="1970" to-port="0"/>
		<edge from-layer="1970" from-port="1" to-layer="1975" to-port="0"/>
		<edge from-layer="1971" from-port="1" to-layer="1975" to-port="1"/>
		<edge from-layer="1972" from-port="1" to-layer="1975" to-port="2"/>
		<edge from-layer="1973" from-port="1" to-layer="1975" to-port="3"/>
		<edge from-layer="1974" from-port="1" to-layer="1975" to-port="4"/>
		<edge from-layer="1976" from-port="1" to-layer="1981" to-port="0"/>
		<edge from-layer="1977" from-port="1" to-layer="1981" to-port="1"/>
		<edge from-layer="1978" from-port="1" to-layer="1981" to-port="2"/>
		<edge from-layer="1979" from-port="1" to-layer="1981" to-port="3"/>
		<edge from-layer="1980" from-port="1" to-layer="1981" to-port="4"/>
		<edge from-layer="1975" from-port="5" to-layer="1982" to-port="0"/>
		<edge from-layer="1981" from-port="5" to-layer="1982" to-port="1"/>
		<edge from-layer="1982" from-port="2" to-layer="1984" to-port="0"/>
		<edge from-layer="1983" from-port="1" to-layer="1984" to-port="1"/>
		<edge from-layer="1984" from-port="2" to-layer="1985" to-port="0"/>
		<edge from-layer="1985" from-port="1" to-layer="1990" to-port="0"/>
		<edge from-layer="1986" from-port="1" to-layer="1990" to-port="1"/>
		<edge from-layer="1987" from-port="1" to-layer="1990" to-port="2"/>
		<edge from-layer="1988" from-port="1" to-layer="1990" to-port="3"/>
		<edge from-layer="1989" from-port="1" to-layer="1990" to-port="4"/>
		<edge from-layer="1991" from-port="1" to-layer="1996" to-port="0"/>
		<edge from-layer="1992" from-port="1" to-layer="1996" to-port="1"/>
		<edge from-layer="1993" from-port="1" to-layer="1996" to-port="2"/>
		<edge from-layer="1994" from-port="1" to-layer="1996" to-port="3"/>
		<edge from-layer="1995" from-port="1" to-layer="1996" to-port="4"/>
		<edge from-layer="1996" from-port="5" to-layer="1998" to-port="0"/>
		<edge from-layer="1997" from-port="1" to-layer="1998" to-port="1"/>
		<edge from-layer="1990" from-port="5" to-layer="1999" to-port="0"/>
		<edge from-layer="1998" from-port="2" to-layer="1999" to-port="1"/>
		<edge from-layer="1999" from-port="2" to-layer="2001" to-port="0"/>
		<edge from-layer="2000" from-port="1" to-layer="2001" to-port="1"/>
		<edge from-layer="2001" from-port="2" to-layer="2002" to-port="0"/>
		<edge from-layer="2002" from-port="1" to-layer="2007" to-port="0"/>
		<edge from-layer="2003" from-port="1" to-layer="2007" to-port="1"/>
		<edge from-layer="2004" from-port="1" to-layer="2007" to-port="2"/>
		<edge from-layer="2005" from-port="1" to-layer="2007" to-port="3"/>
		<edge from-layer="2006" from-port="1" to-layer="2007" to-port="4"/>
		<edge from-layer="2008" from-port="1" to-layer="2013" to-port="0"/>
		<edge from-layer="2009" from-port="1" to-layer="2013" to-port="1"/>
		<edge from-layer="2010" from-port="1" to-layer="2013" to-port="2"/>
		<edge from-layer="2011" from-port="1" to-layer="2013" to-port="3"/>
		<edge from-layer="2012" from-port="1" to-layer="2013" to-port="4"/>
		<edge from-layer="2007" from-port="5" to-layer="2014" to-port="0"/>
		<edge from-layer="2013" from-port="5" to-layer="2014" to-port="1"/>
		<edge from-layer="2014" from-port="2" to-layer="2016" to-port="0"/>
		<edge from-layer="2015" from-port="1" to-layer="2016" to-port="1"/>
		<edge from-layer="2016" from-port="2" to-layer="2021" to-port="0"/>
		<edge from-layer="2017" from-port="1" to-layer="2021" to-port="1"/>
		<edge from-layer="2018" from-port="1" to-layer="2021" to-port="2"/>
		<edge from-layer="2019" from-port="1" to-layer="2021" to-port="3"/>
		<edge from-layer="2020" from-port="1" to-layer="2021" to-port="4"/>
		<edge from-layer="2022" from-port="1" to-layer="2027" to-port="0"/>
		<edge from-layer="2023" from-port="1" to-layer="2027" to-port="1"/>
		<edge from-layer="2024" from-port="1" to-layer="2027" to-port="2"/>
		<edge from-layer="2025" from-port="1" to-layer="2027" to-port="3"/>
		<edge from-layer="2026" from-port="1" to-layer="2027" to-port="4"/>
		<edge from-layer="1975" from-port="5" to-layer="2028" to-port="0"/>
		<edge from-layer="2027" from-port="5" to-layer="2028" to-port="1"/>
		<edge from-layer="2028" from-port="2" to-layer="2030" to-port="0"/>
		<edge from-layer="2029" from-port="1" to-layer="2030" to-port="1"/>
		<edge from-layer="2030" from-port="2" to-layer="2035" to-port="0"/>
		<edge from-layer="2031" from-port="1" to-layer="2035" to-port="1"/>
		<edge from-layer="2032" from-port="1" to-layer="2035" to-port="2"/>
		<edge from-layer="2033" from-port="1" to-layer="2035" to-port="3"/>
		<edge from-layer="2034" from-port="1" to-layer="2035" to-port="4"/>
		<edge from-layer="2021" from-port="5" to-layer="2036" to-port="0"/>
		<edge from-layer="2035" from-port="5" to-layer="2036" to-port="1"/>
		<edge from-layer="2036" from-port="2" to-layer="2037" to-port="0"/>
		<edge from-layer="2037" from-port="1" to-layer="2042" to-port="0"/>
		<edge from-layer="2038" from-port="1" to-layer="2042" to-port="1"/>
		<edge from-layer="2039" from-port="1" to-layer="2042" to-port="2"/>
		<edge from-layer="2040" from-port="1" to-layer="2042" to-port="3"/>
		<edge from-layer="2041" from-port="1" to-layer="2042" to-port="4"/>
		<edge from-layer="2043" from-port="1" to-layer="2048" to-port="0"/>
		<edge from-layer="2044" from-port="1" to-layer="2048" to-port="1"/>
		<edge from-layer="2045" from-port="1" to-layer="2048" to-port="2"/>
		<edge from-layer="2046" from-port="1" to-layer="2048" to-port="3"/>
		<edge from-layer="2047" from-port="1" to-layer="2048" to-port="4"/>
		<edge from-layer="2042" from-port="5" to-layer="2049" to-port="0"/>
		<edge from-layer="2048" from-port="5" to-layer="2049" to-port="1"/>
		<edge from-layer="2049" from-port="2" to-layer="2051" to-port="0"/>
		<edge from-layer="2050" from-port="1" to-layer="2051" to-port="1"/>
		<edge from-layer="2051" from-port="2" to-layer="2052" to-port="0"/>
		<edge from-layer="2052" from-port="1" to-layer="2057" to-port="0"/>
		<edge from-layer="2053" from-port="1" to-layer="2057" to-port="1"/>
		<edge from-layer="2054" from-port="1" to-layer="2057" to-port="2"/>
		<edge from-layer="2055" from-port="1" to-layer="2057" to-port="3"/>
		<edge from-layer="2056" from-port="1" to-layer="2057" to-port="4"/>
		<edge from-layer="2058" from-port="1" to-layer="2063" to-port="0"/>
		<edge from-layer="2059" from-port="1" to-layer="2063" to-port="1"/>
		<edge from-layer="2060" from-port="1" to-layer="2063" to-port="2"/>
		<edge from-layer="2061" from-port="1" to-layer="2063" to-port="3"/>
		<edge from-layer="2062" from-port="1" to-layer="2063" to-port="4"/>
		<edge from-layer="2063" from-port="5" to-layer="2065" to-port="0"/>
		<edge from-layer="2064" from-port="1" to-layer="2065" to-port="1"/>
		<edge from-layer="2057" from-port="5" to-layer="2066" to-port="0"/>
		<edge from-layer="2065" from-port="2" to-layer="2066" to-port="1"/>
		<edge from-layer="2066" from-port="2" to-layer="2068" to-port="0"/>
		<edge from-layer="2067" from-port="1" to-layer="2068" to-port="1"/>
		<edge from-layer="2068" from-port="2" to-layer="2069" to-port="0"/>
		<edge from-layer="2069" from-port="1" to-layer="2074" to-port="0"/>
		<edge from-layer="2070" from-port="1" to-layer="2074" to-port="1"/>
		<edge from-layer="2071" from-port="1" to-layer="2074" to-port="2"/>
		<edge from-layer="2072" from-port="1" to-layer="2074" to-port="3"/>
		<edge from-layer="2073" from-port="1" to-layer="2074" to-port="4"/>
		<edge from-layer="2075" from-port="1" to-layer="2080" to-port="0"/>
		<edge from-layer="2076" from-port="1" to-layer="2080" to-port="1"/>
		<edge from-layer="2077" from-port="1" to-layer="2080" to-port="2"/>
		<edge from-layer="2078" from-port="1" to-layer="2080" to-port="3"/>
		<edge from-layer="2079" from-port="1" to-layer="2080" to-port="4"/>
		<edge from-layer="2074" from-port="5" to-layer="2081" to-port="0"/>
		<edge from-layer="2080" from-port="5" to-layer="2081" to-port="1"/>
		<edge from-layer="2081" from-port="2" to-layer="2083" to-port="0"/>
		<edge from-layer="2082" from-port="1" to-layer="2083" to-port="1"/>
		<edge from-layer="2083" from-port="2" to-layer="2088" to-port="0"/>
		<edge from-layer="2084" from-port="1" to-layer="2088" to-port="1"/>
		<edge from-layer="2085" from-port="1" to-layer="2088" to-port="2"/>
		<edge from-layer="2086" from-port="1" to-layer="2088" to-port="3"/>
		<edge from-layer="2087" from-port="1" to-layer="2088" to-port="4"/>
		<edge from-layer="2088" from-port="5" to-layer="2089" to-port="0"/>
		<edge from-layer="2042" from-port="5" to-layer="2089" to-port="1"/>
		<edge from-layer="2089" from-port="2" to-layer="2090" to-port="0"/>
		<edge from-layer="2090" from-port="1" to-layer="2095" to-port="0"/>
		<edge from-layer="2091" from-port="1" to-layer="2095" to-port="1"/>
		<edge from-layer="2092" from-port="1" to-layer="2095" to-port="2"/>
		<edge from-layer="2093" from-port="1" to-layer="2095" to-port="3"/>
		<edge from-layer="2094" from-port="1" to-layer="2095" to-port="4"/>
		<edge from-layer="2096" from-port="1" to-layer="2101" to-port="0"/>
		<edge from-layer="2097" from-port="1" to-layer="2101" to-port="1"/>
		<edge from-layer="2098" from-port="1" to-layer="2101" to-port="2"/>
		<edge from-layer="2099" from-port="1" to-layer="2101" to-port="3"/>
		<edge from-layer="2100" from-port="1" to-layer="2101" to-port="4"/>
		<edge from-layer="2095" from-port="5" to-layer="2102" to-port="0"/>
		<edge from-layer="2101" from-port="5" to-layer="2102" to-port="1"/>
		<edge from-layer="2102" from-port="2" to-layer="2104" to-port="0"/>
		<edge from-layer="2103" from-port="1" to-layer="2104" to-port="1"/>
		<edge from-layer="2104" from-port="2" to-layer="2105" to-port="0"/>
		<edge from-layer="2105" from-port="1" to-layer="2110" to-port="0"/>
		<edge from-layer="2106" from-port="1" to-layer="2110" to-port="1"/>
		<edge from-layer="2107" from-port="1" to-layer="2110" to-port="2"/>
		<edge from-layer="2108" from-port="1" to-layer="2110" to-port="3"/>
		<edge from-layer="2109" from-port="1" to-layer="2110" to-port="4"/>
		<edge from-layer="2111" from-port="1" to-layer="2116" to-port="0"/>
		<edge from-layer="2112" from-port="1" to-layer="2116" to-port="1"/>
		<edge from-layer="2113" from-port="1" to-layer="2116" to-port="2"/>
		<edge from-layer="2114" from-port="1" to-layer="2116" to-port="3"/>
		<edge from-layer="2115" from-port="1" to-layer="2116" to-port="4"/>
		<edge from-layer="2116" from-port="5" to-layer="2118" to-port="0"/>
		<edge from-layer="2117" from-port="1" to-layer="2118" to-port="1"/>
		<edge from-layer="2110" from-port="5" to-layer="2119" to-port="0"/>
		<edge from-layer="2118" from-port="2" to-layer="2119" to-port="1"/>
		<edge from-layer="2119" from-port="2" to-layer="2121" to-port="0"/>
		<edge from-layer="2120" from-port="1" to-layer="2121" to-port="1"/>
		<edge from-layer="2121" from-port="2" to-layer="2122" to-port="0"/>
		<edge from-layer="2122" from-port="1" to-layer="2127" to-port="0"/>
		<edge from-layer="2123" from-port="1" to-layer="2127" to-port="1"/>
		<edge from-layer="2124" from-port="1" to-layer="2127" to-port="2"/>
		<edge from-layer="2125" from-port="1" to-layer="2127" to-port="3"/>
		<edge from-layer="2126" from-port="1" to-layer="2127" to-port="4"/>
		<edge from-layer="2128" from-port="1" to-layer="2133" to-port="0"/>
		<edge from-layer="2129" from-port="1" to-layer="2133" to-port="1"/>
		<edge from-layer="2130" from-port="1" to-layer="2133" to-port="2"/>
		<edge from-layer="2131" from-port="1" to-layer="2133" to-port="3"/>
		<edge from-layer="2132" from-port="1" to-layer="2133" to-port="4"/>
		<edge from-layer="2127" from-port="5" to-layer="2134" to-port="0"/>
		<edge from-layer="2133" from-port="5" to-layer="2134" to-port="1"/>
		<edge from-layer="2134" from-port="2" to-layer="2136" to-port="0"/>
		<edge from-layer="2135" from-port="1" to-layer="2136" to-port="1"/>
		<edge from-layer="2136" from-port="2" to-layer="2141" to-port="0"/>
		<edge from-layer="2137" from-port="1" to-layer="2141" to-port="1"/>
		<edge from-layer="2138" from-port="1" to-layer="2141" to-port="2"/>
		<edge from-layer="2139" from-port="1" to-layer="2141" to-port="3"/>
		<edge from-layer="2140" from-port="1" to-layer="2141" to-port="4"/>
		<edge from-layer="2141" from-port="5" to-layer="2142" to-port="0"/>
		<edge from-layer="2095" from-port="5" to-layer="2142" to-port="1"/>
		<edge from-layer="2142" from-port="2" to-layer="2143" to-port="0"/>
		<edge from-layer="2143" from-port="1" to-layer="2148" to-port="0"/>
		<edge from-layer="2144" from-port="1" to-layer="2148" to-port="1"/>
		<edge from-layer="2145" from-port="1" to-layer="2148" to-port="2"/>
		<edge from-layer="2146" from-port="1" to-layer="2148" to-port="3"/>
		<edge from-layer="2147" from-port="1" to-layer="2148" to-port="4"/>
		<edge from-layer="2149" from-port="1" to-layer="2154" to-port="0"/>
		<edge from-layer="2150" from-port="1" to-layer="2154" to-port="1"/>
		<edge from-layer="2151" from-port="1" to-layer="2154" to-port="2"/>
		<edge from-layer="2152" from-port="1" to-layer="2154" to-port="3"/>
		<edge from-layer="2153" from-port="1" to-layer="2154" to-port="4"/>
		<edge from-layer="2148" from-port="5" to-layer="2155" to-port="0"/>
		<edge from-layer="2154" from-port="5" to-layer="2155" to-port="1"/>
		<edge from-layer="2155" from-port="2" to-layer="2157" to-port="0"/>
		<edge from-layer="2156" from-port="1" to-layer="2157" to-port="1"/>
		<edge from-layer="2157" from-port="2" to-layer="2158" to-port="0"/>
		<edge from-layer="2158" from-port="1" to-layer="2163" to-port="0"/>
		<edge from-layer="2159" from-port="1" to-layer="2163" to-port="1"/>
		<edge from-layer="2160" from-port="1" to-layer="2163" to-port="2"/>
		<edge from-layer="2161" from-port="1" to-layer="2163" to-port="3"/>
		<edge from-layer="2162" from-port="1" to-layer="2163" to-port="4"/>
		<edge from-layer="2164" from-port="1" to-layer="2169" to-port="0"/>
		<edge from-layer="2165" from-port="1" to-layer="2169" to-port="1"/>
		<edge from-layer="2166" from-port="1" to-layer="2169" to-port="2"/>
		<edge from-layer="2167" from-port="1" to-layer="2169" to-port="3"/>
		<edge from-layer="2168" from-port="1" to-layer="2169" to-port="4"/>
		<edge from-layer="2169" from-port="5" to-layer="2171" to-port="0"/>
		<edge from-layer="2170" from-port="1" to-layer="2171" to-port="1"/>
		<edge from-layer="2163" from-port="5" to-layer="2172" to-port="0"/>
		<edge from-layer="2171" from-port="2" to-layer="2172" to-port="1"/>
		<edge from-layer="2172" from-port="2" to-layer="2174" to-port="0"/>
		<edge from-layer="2173" from-port="1" to-layer="2174" to-port="1"/>
		<edge from-layer="2174" from-port="2" to-layer="2175" to-port="0"/>
		<edge from-layer="2175" from-port="1" to-layer="2180" to-port="0"/>
		<edge from-layer="2176" from-port="1" to-layer="2180" to-port="1"/>
		<edge from-layer="2177" from-port="1" to-layer="2180" to-port="2"/>
		<edge from-layer="2178" from-port="1" to-layer="2180" to-port="3"/>
		<edge from-layer="2179" from-port="1" to-layer="2180" to-port="4"/>
		<edge from-layer="2181" from-port="1" to-layer="2186" to-port="0"/>
		<edge from-layer="2182" from-port="1" to-layer="2186" to-port="1"/>
		<edge from-layer="2183" from-port="1" to-layer="2186" to-port="2"/>
		<edge from-layer="2184" from-port="1" to-layer="2186" to-port="3"/>
		<edge from-layer="2185" from-port="1" to-layer="2186" to-port="4"/>
		<edge from-layer="2180" from-port="5" to-layer="2187" to-port="0"/>
		<edge from-layer="2186" from-port="5" to-layer="2187" to-port="1"/>
		<edge from-layer="2187" from-port="2" to-layer="2189" to-port="0"/>
		<edge from-layer="2188" from-port="1" to-layer="2189" to-port="1"/>
		<edge from-layer="2189" from-port="2" to-layer="2194" to-port="0"/>
		<edge from-layer="2190" from-port="1" to-layer="2194" to-port="1"/>
		<edge from-layer="2191" from-port="1" to-layer="2194" to-port="2"/>
		<edge from-layer="2192" from-port="1" to-layer="2194" to-port="3"/>
		<edge from-layer="2193" from-port="1" to-layer="2194" to-port="4"/>
		<edge from-layer="2194" from-port="5" to-layer="2195" to-port="0"/>
		<edge from-layer="2148" from-port="5" to-layer="2195" to-port="1"/>
		<edge from-layer="2195" from-port="2" to-layer="2196" to-port="0"/>
		<edge from-layer="2196" from-port="1" to-layer="2201" to-port="0"/>
		<edge from-layer="2197" from-port="1" to-layer="2201" to-port="1"/>
		<edge from-layer="2198" from-port="1" to-layer="2201" to-port="2"/>
		<edge from-layer="2199" from-port="1" to-layer="2201" to-port="3"/>
		<edge from-layer="2200" from-port="1" to-layer="2201" to-port="4"/>
		<edge from-layer="2201" from-port="5" to-layer="2202" to-port="0"/>
		<edge from-layer="2202" from-port="1" to-layer="2207" to-port="0"/>
		<edge from-layer="2203" from-port="1" to-layer="2207" to-port="1"/>
		<edge from-layer="2204" from-port="1" to-layer="2207" to-port="2"/>
		<edge from-layer="2205" from-port="1" to-layer="2207" to-port="3"/>
		<edge from-layer="2206" from-port="1" to-layer="2207" to-port="4"/>
		<edge from-layer="2208" from-port="1" to-layer="2213" to-port="0"/>
		<edge from-layer="2209" from-port="1" to-layer="2213" to-port="1"/>
		<edge from-layer="2210" from-port="1" to-layer="2213" to-port="2"/>
		<edge from-layer="2211" from-port="1" to-layer="2213" to-port="3"/>
		<edge from-layer="2212" from-port="1" to-layer="2213" to-port="4"/>
		<edge from-layer="2207" from-port="5" to-layer="2214" to-port="0"/>
		<edge from-layer="2213" from-port="5" to-layer="2214" to-port="1"/>
		<edge from-layer="2214" from-port="2" to-layer="2216" to-port="0"/>
		<edge from-layer="2215" from-port="1" to-layer="2216" to-port="1"/>
		<edge from-layer="2216" from-port="2" to-layer="2217" to-port="0"/>
		<edge from-layer="2217" from-port="1" to-layer="2222" to-port="0"/>
		<edge from-layer="2218" from-port="1" to-layer="2222" to-port="1"/>
		<edge from-layer="2219" from-port="1" to-layer="2222" to-port="2"/>
		<edge from-layer="2220" from-port="1" to-layer="2222" to-port="3"/>
		<edge from-layer="2221" from-port="1" to-layer="2222" to-port="4"/>
		<edge from-layer="2222" from-port="5" to-layer="2224" to-port="0"/>
		<edge from-layer="2223" from-port="1" to-layer="2224" to-port="1"/>
		<edge from-layer="2224" from-port="2" to-layer="2229" to-port="0"/>
		<edge from-layer="2225" from-port="1" to-layer="2229" to-port="1"/>
		<edge from-layer="2226" from-port="1" to-layer="2229" to-port="2"/>
		<edge from-layer="2227" from-port="1" to-layer="2229" to-port="3"/>
		<edge from-layer="2228" from-port="1" to-layer="2229" to-port="4"/>
		<edge from-layer="2230" from-port="1" to-layer="2235" to-port="0"/>
		<edge from-layer="2231" from-port="1" to-layer="2235" to-port="1"/>
		<edge from-layer="2232" from-port="1" to-layer="2235" to-port="2"/>
		<edge from-layer="2233" from-port="1" to-layer="2235" to-port="3"/>
		<edge from-layer="2234" from-port="1" to-layer="2235" to-port="4"/>
		<edge from-layer="2229" from-port="5" to-layer="2236" to-port="0"/>
		<edge from-layer="2235" from-port="5" to-layer="2236" to-port="1"/>
		<edge from-layer="2236" from-port="2" to-layer="2238" to-port="0"/>
		<edge from-layer="2237" from-port="1" to-layer="2238" to-port="1"/>
		<edge from-layer="2238" from-port="2" to-layer="2239" to-port="0"/>
		<edge from-layer="2239" from-port="1" to-layer="2244" to-port="0"/>
		<edge from-layer="2240" from-port="1" to-layer="2244" to-port="1"/>
		<edge from-layer="2241" from-port="1" to-layer="2244" to-port="2"/>
		<edge from-layer="2242" from-port="1" to-layer="2244" to-port="3"/>
		<edge from-layer="2243" from-port="1" to-layer="2244" to-port="4"/>
		<edge from-layer="2201" from-port="5" to-layer="2245" to-port="0"/>
		<edge from-layer="2244" from-port="5" to-layer="2245" to-port="1"/>
		<edge from-layer="2245" from-port="2" to-layer="2250" to-port="0"/>
		<edge from-layer="2246" from-port="1" to-layer="2250" to-port="1"/>
		<edge from-layer="2247" from-port="1" to-layer="2250" to-port="2"/>
		<edge from-layer="2248" from-port="1" to-layer="2250" to-port="3"/>
		<edge from-layer="2249" from-port="1" to-layer="2250" to-port="4"/>
		<edge from-layer="2201" from-port="5" to-layer="2251" to-port="0"/>
		<edge from-layer="2251" from-port="1" to-layer="2256" to-port="0"/>
		<edge from-layer="2252" from-port="1" to-layer="2256" to-port="1"/>
		<edge from-layer="2253" from-port="1" to-layer="2256" to-port="2"/>
		<edge from-layer="2254" from-port="1" to-layer="2256" to-port="3"/>
		<edge from-layer="2255" from-port="1" to-layer="2256" to-port="4"/>
		<edge from-layer="2257" from-port="1" to-layer="2262" to-port="0"/>
		<edge from-layer="2258" from-port="1" to-layer="2262" to-port="1"/>
		<edge from-layer="2259" from-port="1" to-layer="2262" to-port="2"/>
		<edge from-layer="2260" from-port="1" to-layer="2262" to-port="3"/>
		<edge from-layer="2261" from-port="1" to-layer="2262" to-port="4"/>
		<edge from-layer="2256" from-port="5" to-layer="2263" to-port="0"/>
		<edge from-layer="2262" from-port="5" to-layer="2263" to-port="1"/>
		<edge from-layer="2263" from-port="2" to-layer="2265" to-port="0"/>
		<edge from-layer="2264" from-port="1" to-layer="2265" to-port="1"/>
		<edge from-layer="2265" from-port="2" to-layer="2266" to-port="0"/>
		<edge from-layer="2266" from-port="1" to-layer="2271" to-port="0"/>
		<edge from-layer="2267" from-port="1" to-layer="2271" to-port="1"/>
		<edge from-layer="2268" from-port="1" to-layer="2271" to-port="2"/>
		<edge from-layer="2269" from-port="1" to-layer="2271" to-port="3"/>
		<edge from-layer="2270" from-port="1" to-layer="2271" to-port="4"/>
		<edge from-layer="2271" from-port="5" to-layer="2273" to-port="0"/>
		<edge from-layer="2272" from-port="1" to-layer="2273" to-port="1"/>
		<edge from-layer="2273" from-port="2" to-layer="2278" to-port="0"/>
		<edge from-layer="2274" from-port="1" to-layer="2278" to-port="1"/>
		<edge from-layer="2275" from-port="1" to-layer="2278" to-port="2"/>
		<edge from-layer="2276" from-port="1" to-layer="2278" to-port="3"/>
		<edge from-layer="2277" from-port="1" to-layer="2278" to-port="4"/>
		<edge from-layer="2279" from-port="1" to-layer="2284" to-port="0"/>
		<edge from-layer="2280" from-port="1" to-layer="2284" to-port="1"/>
		<edge from-layer="2281" from-port="1" to-layer="2284" to-port="2"/>
		<edge from-layer="2282" from-port="1" to-layer="2284" to-port="3"/>
		<edge from-layer="2283" from-port="1" to-layer="2284" to-port="4"/>
		<edge from-layer="2278" from-port="5" to-layer="2285" to-port="0"/>
		<edge from-layer="2284" from-port="5" to-layer="2285" to-port="1"/>
		<edge from-layer="2285" from-port="2" to-layer="2287" to-port="0"/>
		<edge from-layer="2286" from-port="1" to-layer="2287" to-port="1"/>
		<edge from-layer="2287" from-port="2" to-layer="2288" to-port="0"/>
		<edge from-layer="2288" from-port="1" to-layer="2293" to-port="0"/>
		<edge from-layer="2289" from-port="1" to-layer="2293" to-port="1"/>
		<edge from-layer="2290" from-port="1" to-layer="2293" to-port="2"/>
		<edge from-layer="2291" from-port="1" to-layer="2293" to-port="3"/>
		<edge from-layer="2292" from-port="1" to-layer="2293" to-port="4"/>
		<edge from-layer="2250" from-port="5" to-layer="2294" to-port="0"/>
		<edge from-layer="2293" from-port="5" to-layer="2294" to-port="1"/>
		<edge from-layer="2294" from-port="2" to-layer="2299" to-port="0"/>
		<edge from-layer="2295" from-port="1" to-layer="2299" to-port="1"/>
		<edge from-layer="2296" from-port="1" to-layer="2299" to-port="2"/>
		<edge from-layer="2297" from-port="1" to-layer="2299" to-port="3"/>
		<edge from-layer="2298" from-port="1" to-layer="2299" to-port="4"/>
		<edge from-layer="2300" from-port="1" to-layer="2305" to-port="0"/>
		<edge from-layer="2301" from-port="1" to-layer="2305" to-port="1"/>
		<edge from-layer="2302" from-port="1" to-layer="2305" to-port="2"/>
		<edge from-layer="2303" from-port="1" to-layer="2305" to-port="3"/>
		<edge from-layer="2304" from-port="1" to-layer="2305" to-port="4"/>
		<edge from-layer="2299" from-port="5" to-layer="2306" to-port="0"/>
		<edge from-layer="2305" from-port="5" to-layer="2306" to-port="1"/>
		<edge from-layer="2306" from-port="2" to-layer="2308" to-port="0"/>
		<edge from-layer="2307" from-port="1" to-layer="2308" to-port="1"/>
		<edge from-layer="2308" from-port="2" to-layer="2309" to-port="0"/>
		<edge from-layer="2309" from-port="1" to-layer="2314" to-port="0"/>
		<edge from-layer="2310" from-port="1" to-layer="2314" to-port="1"/>
		<edge from-layer="2311" from-port="1" to-layer="2314" to-port="2"/>
		<edge from-layer="2312" from-port="1" to-layer="2314" to-port="3"/>
		<edge from-layer="2313" from-port="1" to-layer="2314" to-port="4"/>
		<edge from-layer="2314" from-port="5" to-layer="2316" to-port="0"/>
		<edge from-layer="2315" from-port="1" to-layer="2316" to-port="1"/>
		<edge from-layer="2316" from-port="2" to-layer="2321" to-port="0"/>
		<edge from-layer="2317" from-port="1" to-layer="2321" to-port="1"/>
		<edge from-layer="2318" from-port="1" to-layer="2321" to-port="2"/>
		<edge from-layer="2319" from-port="1" to-layer="2321" to-port="3"/>
		<edge from-layer="2320" from-port="1" to-layer="2321" to-port="4"/>
		<edge from-layer="2322" from-port="1" to-layer="2327" to-port="0"/>
		<edge from-layer="2323" from-port="1" to-layer="2327" to-port="1"/>
		<edge from-layer="2324" from-port="1" to-layer="2327" to-port="2"/>
		<edge from-layer="2325" from-port="1" to-layer="2327" to-port="3"/>
		<edge from-layer="2326" from-port="1" to-layer="2327" to-port="4"/>
		<edge from-layer="805" from-port="5" to-layer="2328" to-port="0"/>
		<edge from-layer="2327" from-port="5" to-layer="2328" to-port="1"/>
		<edge from-layer="2328" from-port="2" to-layer="2330" to-port="0"/>
		<edge from-layer="2329" from-port="1" to-layer="2330" to-port="1"/>
		<edge from-layer="2330" from-port="2" to-layer="2331" to-port="0"/>
		<edge from-layer="2331" from-port="1" to-layer="2336" to-port="0"/>
		<edge from-layer="2332" from-port="1" to-layer="2336" to-port="1"/>
		<edge from-layer="2333" from-port="1" to-layer="2336" to-port="2"/>
		<edge from-layer="2334" from-port="1" to-layer="2336" to-port="3"/>
		<edge from-layer="2335" from-port="1" to-layer="2336" to-port="4"/>
		<edge from-layer="2321" from-port="5" to-layer="2337" to-port="0"/>
		<edge from-layer="2336" from-port="5" to-layer="2337" to-port="1"/>
		<edge from-layer="2337" from-port="2" to-layer="2342" to-port="0"/>
		<edge from-layer="2338" from-port="1" to-layer="2342" to-port="1"/>
		<edge from-layer="2339" from-port="1" to-layer="2342" to-port="2"/>
		<edge from-layer="2340" from-port="1" to-layer="2342" to-port="3"/>
		<edge from-layer="2341" from-port="1" to-layer="2342" to-port="4"/>
		<edge from-layer="2343" from-port="1" to-layer="2348" to-port="0"/>
		<edge from-layer="2344" from-port="1" to-layer="2348" to-port="1"/>
		<edge from-layer="2345" from-port="1" to-layer="2348" to-port="2"/>
		<edge from-layer="2346" from-port="1" to-layer="2348" to-port="3"/>
		<edge from-layer="2347" from-port="1" to-layer="2348" to-port="4"/>
		<edge from-layer="2342" from-port="5" to-layer="2349" to-port="0"/>
		<edge from-layer="2348" from-port="5" to-layer="2349" to-port="1"/>
		<edge from-layer="2349" from-port="2" to-layer="2351" to-port="0"/>
		<edge from-layer="2350" from-port="1" to-layer="2351" to-port="1"/>
		<edge from-layer="2351" from-port="2" to-layer="2352" to-port="0"/>
		<edge from-layer="2352" from-port="1" to-layer="2357" to-port="0"/>
		<edge from-layer="2353" from-port="1" to-layer="2357" to-port="1"/>
		<edge from-layer="2354" from-port="1" to-layer="2357" to-port="2"/>
		<edge from-layer="2355" from-port="1" to-layer="2357" to-port="3"/>
		<edge from-layer="2356" from-port="1" to-layer="2357" to-port="4"/>
		<edge from-layer="2357" from-port="5" to-layer="2359" to-port="0"/>
		<edge from-layer="2358" from-port="1" to-layer="2359" to-port="1"/>
		<edge from-layer="2359" from-port="2" to-layer="2364" to-port="0"/>
		<edge from-layer="2360" from-port="1" to-layer="2364" to-port="1"/>
		<edge from-layer="2361" from-port="1" to-layer="2364" to-port="2"/>
		<edge from-layer="2362" from-port="1" to-layer="2364" to-port="3"/>
		<edge from-layer="2363" from-port="1" to-layer="2364" to-port="4"/>
		<edge from-layer="2365" from-port="1" to-layer="2370" to-port="0"/>
		<edge from-layer="2366" from-port="1" to-layer="2370" to-port="1"/>
		<edge from-layer="2367" from-port="1" to-layer="2370" to-port="2"/>
		<edge from-layer="2368" from-port="1" to-layer="2370" to-port="3"/>
		<edge from-layer="2369" from-port="1" to-layer="2370" to-port="4"/>
		<edge from-layer="313" from-port="5" to-layer="2371" to-port="0"/>
		<edge from-layer="2370" from-port="5" to-layer="2371" to-port="1"/>
		<edge from-layer="2371" from-port="2" to-layer="2373" to-port="0"/>
		<edge from-layer="2372" from-port="1" to-layer="2373" to-port="1"/>
		<edge from-layer="2373" from-port="2" to-layer="2374" to-port="0"/>
		<edge from-layer="2374" from-port="1" to-layer="2379" to-port="0"/>
		<edge from-layer="2375" from-port="1" to-layer="2379" to-port="1"/>
		<edge from-layer="2376" from-port="1" to-layer="2379" to-port="2"/>
		<edge from-layer="2377" from-port="1" to-layer="2379" to-port="3"/>
		<edge from-layer="2378" from-port="1" to-layer="2379" to-port="4"/>
		<edge from-layer="2364" from-port="5" to-layer="2380" to-port="0"/>
		<edge from-layer="2379" from-port="5" to-layer="2380" to-port="1"/>
		<edge from-layer="2380" from-port="2" to-layer="2385" to-port="0"/>
		<edge from-layer="2381" from-port="1" to-layer="2385" to-port="1"/>
		<edge from-layer="2382" from-port="1" to-layer="2385" to-port="2"/>
		<edge from-layer="2383" from-port="1" to-layer="2385" to-port="3"/>
		<edge from-layer="2384" from-port="1" to-layer="2385" to-port="4"/>
		<edge from-layer="2386" from-port="1" to-layer="2391" to-port="0"/>
		<edge from-layer="2387" from-port="1" to-layer="2391" to-port="1"/>
		<edge from-layer="2388" from-port="1" to-layer="2391" to-port="2"/>
		<edge from-layer="2389" from-port="1" to-layer="2391" to-port="3"/>
		<edge from-layer="2390" from-port="1" to-layer="2391" to-port="4"/>
		<edge from-layer="2385" from-port="5" to-layer="2392" to-port="0"/>
		<edge from-layer="2391" from-port="5" to-layer="2392" to-port="1"/>
		<edge from-layer="2392" from-port="2" to-layer="2394" to-port="0"/>
		<edge from-layer="2393" from-port="1" to-layer="2394" to-port="1"/>
		<edge from-layer="2394" from-port="2" to-layer="2395" to-port="0"/>
		<edge from-layer="2395" from-port="1" to-layer="2400" to-port="0"/>
		<edge from-layer="2396" from-port="1" to-layer="2400" to-port="1"/>
		<edge from-layer="2397" from-port="1" to-layer="2400" to-port="2"/>
		<edge from-layer="2398" from-port="1" to-layer="2400" to-port="3"/>
		<edge from-layer="2399" from-port="1" to-layer="2400" to-port="4"/>
		<edge from-layer="2401" from-port="1" to-layer="2406" to-port="0"/>
		<edge from-layer="2402" from-port="1" to-layer="2406" to-port="1"/>
		<edge from-layer="2403" from-port="1" to-layer="2406" to-port="2"/>
		<edge from-layer="2404" from-port="1" to-layer="2406" to-port="3"/>
		<edge from-layer="2405" from-port="1" to-layer="2406" to-port="4"/>
		<edge from-layer="2406" from-port="5" to-layer="2408" to-port="0"/>
		<edge from-layer="2407" from-port="1" to-layer="2408" to-port="1"/>
		<edge from-layer="2400" from-port="5" to-layer="2409" to-port="0"/>
		<edge from-layer="2408" from-port="2" to-layer="2409" to-port="1"/>
		<edge from-layer="2409" from-port="2" to-layer="2411" to-port="0"/>
		<edge from-layer="2410" from-port="1" to-layer="2411" to-port="1"/>
		<edge from-layer="2411" from-port="2" to-layer="2412" to-port="0"/>
		<edge from-layer="2412" from-port="1" to-layer="2417" to-port="0"/>
		<edge from-layer="2413" from-port="1" to-layer="2417" to-port="1"/>
		<edge from-layer="2414" from-port="1" to-layer="2417" to-port="2"/>
		<edge from-layer="2415" from-port="1" to-layer="2417" to-port="3"/>
		<edge from-layer="2416" from-port="1" to-layer="2417" to-port="4"/>
		<edge from-layer="2418" from-port="1" to-layer="2423" to-port="0"/>
		<edge from-layer="2419" from-port="1" to-layer="2423" to-port="1"/>
		<edge from-layer="2420" from-port="1" to-layer="2423" to-port="2"/>
		<edge from-layer="2421" from-port="1" to-layer="2423" to-port="3"/>
		<edge from-layer="2422" from-port="1" to-layer="2423" to-port="4"/>
		<edge from-layer="2417" from-port="5" to-layer="2424" to-port="0"/>
		<edge from-layer="2423" from-port="5" to-layer="2424" to-port="1"/>
		<edge from-layer="2424" from-port="2" to-layer="2426" to-port="0"/>
		<edge from-layer="2425" from-port="1" to-layer="2426" to-port="1"/>
		<edge from-layer="2426" from-port="2" to-layer="2431" to-port="0"/>
		<edge from-layer="2427" from-port="1" to-layer="2431" to-port="1"/>
		<edge from-layer="2428" from-port="1" to-layer="2431" to-port="2"/>
		<edge from-layer="2429" from-port="1" to-layer="2431" to-port="3"/>
		<edge from-layer="2430" from-port="1" to-layer="2431" to-port="4"/>
		<edge from-layer="2431" from-port="5" to-layer="2433" to-port="0"/>
		<edge from-layer="2432" from-port="1" to-layer="2433" to-port="1"/>
		<edge from-layer="2433" from-port="2" to-layer="2434" to-port="0"/>
		<edge from-layer="2434" from-port="1" to-layer="2435" to-port="0"/>
	</edges>
	<meta_data>
		<MO_version value="unknown version"/>
		<cli_parameters>
			<blobs_as_inputs value="True"/>
			<caffe_parser_path value="DIR"/>
			<data_type value="FP32"/>
			<disable_nhwc_to_nchw value="False"/>
			<disable_omitting_optional value="False"/>
			<disable_resnet_optimization value="False"/>
			<enable_concat_optimization value="False"/>
			<enable_flattening_nested_params value="False"/>
			<enable_ssd_gluoncv value="False"/>
			<extensions value="DIR"/>
			<framework value="caffe"/>
			<freeze_placeholder_with_value value="{}"/>
			<generate_deprecated_IR_V2 value="False"/>
			<generate_deprecated_IR_V7 value="False"/>
			<generate_experimental_IR_V10 value="True"/>
			<input value="data"/>
			<input_model value="DIR/model.caffemodel"/>
			<input_model_is_text value="False"/>
			<input_proto value="DIR/model.prototxt"/>
			<input_shape value="[1,3,512,896]"/>
			<k value="DIR/CustomLayersMapping.xml"/>
			<keep_quantize_ops_in_IR value="True"/>
			<keep_shape_ops value="False"/>
			<legacy_mxnet_model value="False"/>
			<log_level value="ERROR"/>
			<mean_scale_values value="{}"/>
			<mean_values value="()"/>
			<model_name value="road-segmentation-adas-0001"/>
			<move_to_preprocess value="False"/>
			<output value="['L0317_ReWeight_SoftMax']"/>
			<output_dir value="DIR"/>
			<placeholder_data_types value="{}"/>
			<placeholder_shapes value="{'data': array([  1,   3, 512, 896])}"/>
			<progress value="False"/>
			<remove_memory value="False"/>
			<remove_output_softmax value="False"/>
			<reverse_input_channels value="False"/>
			<save_params_from_nd value="False"/>
			<scale_values value="()"/>
			<silent value="False"/>
			<stream_output value="False"/>
			<unset unset_cli_parameters="batch, counts, disable_fusing, disable_gfusing, finegrain_fusing, input_checkpoint, input_meta_graph, input_symbol, mean_file, mean_file_offsets, nd_prefix_name, pretrained_model_name, saved_model_dir, saved_model_tags, scale, tensorboard_logdir, tensorflow_custom_layer_libraries, tensorflow_custom_operations_config_update, tensorflow_object_detection_api_pipeline_config, tensorflow_operation_patterns, tensorflow_subgraph_patterns, tensorflow_use_custom_operations_config, transformations_config"/>
		</cli_parameters>
	</meta_data>
</net>
